saved_models/discriminator_weights.pth (torch, 168020 bytes, 5 tensors)

lstm.weight_ih_l0 f4 [400, 1]
0	0x3e74559c	0.23860782
1	0x3e6b625b	0.22986738
2	0x3ea53432	0.32266384
3	0x3e106a22	0.14102986
4	0xbe116209	-0.14197554
5	0x3e282712	0.16421154
6	0x3d932036	0.07183878
7	0x3e3932d0	0.1808579
8	0x3e82a9e7	0.2552025
9	0xbe98399d	-0.29731455
10	0x3e7f6094	0.24939185
11	0x3e5a37db	0.2131037
12	0x3e3f5199	0.18683471
13	0x3ec48fea	0.38391048
14	0x3e8a2572	0.26981694
15	0x3e4f7fdd	0.2026362
16	0x3e896856	0.26837415
17	0xbc6a52fa	-0.01430201
18	0x3e80f28e	0.25185055
19	0x3eafa80e	0.34307903
20	0x3e38691e	0.18008849
21	0x3e7c7b09	0.24656309
22	0x3e75bf29	0.23998703
23	0x3ea7c716	0.32769078
24	0x3e7b9d1e	0.24571654
25	0x3e86b214	0.26307738
26	0xbe62d8c5	-0.22153004
27	0x3e2005e2	0.15627244
28	0x3e42b337	0.19013678
29	0x3e845794	0.25848067
30	0x3b851f39	0.00406256
31	0x3e1f9329	0.15583481
32	0x3eabbe43	0.33543596
33	0x3e9be664	0.30449212
34	0xbe50b89a	-0.2038292
35	0x3e306fd9	0.17230166
36	0x3eb9372d	0.36174908
37	0x3e25ad7b	0.16179459
38	0x3de98684	0.1140261
39	0x3e220d36	0.15825352
40	0x3e609c07	0.2193452
41	0x3dfa0721	0.12208391
42	0x3e1c279a	0.15249482
43	0x3eb331b8	0.3499887
44	0x3e0b22b8	0.13587463
45	0x3e949c93	0.29025707
46	0x3e722d09	0.23649992
47	0x3e898620	0.26860142
48	0x3ceca6e3	0.028888172
49	0x3e6903d8	0.22755373
50	0x3eaf8bee	0.34286445
51	0x3ea03c63	0.3129607
52	0x3de7b2ea	0.11313422
53	0x3ea79934	0.32734072
54	0x3e4d741e	0.20063826
55	0x3e56fe4f	0.20995449
56	0xbd386868	-0.045021445
57	0x3ea5c3ee	0.32376045
58	0x3e9f08c1	0.31061366
59	0x3ea1bd2f	0.31589648
60	0x3e96be1d	0.2944192
61	0x3e2c2833	0.1681221
62	0xbe3ba311	-0.18323924
63	0x3e7cd8a5	0.24692018
64	0xbe12d966	-0.14340743
65	0x3d585885	0.052818794
66	0xbd45344f	-0.04814559
67	0x3e20a6f5	0.15688689
68	0xbe3ca09f	-0.18420647
69	0x3e87d686	0.26530856
70	0x3e22c908	0.15897
71	0x3eae79d1	0.34077314
72	0x3e396256	0.18103918
73	0x3df0babe	0.11754368
74	0x3e79cec2	0.24395278
75	0x3e65c28d	0.22437496
76	0x3de59f0c	0.112119764
77	0x3e005779	0.12533368
78	0xbe42e6ce	-0.19033358
79	0x3e665869	0.22494663
80	0x3ecf0c76	0.40439194
81	0x3e562d5c	0.2091574
82	0x3de3f006	0.11129765
83	0x3e86a3ed	0.2629694
84	0x3e8f74f2	0.2801891
85	0x3e43aed1	0.19109656
86	0x3e979126	0.29602927
87	0x3e88443b	0.26614556
88	0x3e143858	0.14474618
89	0x3e824179	0.25440577
90	0x3e998ae2	0.29988772
91	0x3e3dc716	0.18532977
92	0x3e8fc2a9	0.280782
93	0x3e864deb	0.26231322
94	0xbe2ae6b3	-0.16689567
95	0xbd8f9a09	-0.07011802
96	0x3e1befde	0.15228221
97	0x3e07cd1c	0.13261837
98	0x3e3c7174	0.18402654
99	0x3e70d73d	0.23519607
100	0x3e358669	0.17727055
101	0x3e735556	0.23763022
102	0x3e50977f	0.20370291
103	0x3e488567	0.19582139
104	0xbe33b688	-0.17550099
105	0x3e36c2cb	0.17847745
106	0x3e1e3598	0.15450132
107	0x3ea58451	0.32327512
108	0x3e093aa9	0.13401283
109	0xbe51c7bb	-0.20486347
110	0x3ea2a0da	0.31763345
111	0x3e0a04e6	0.13478431
112	0x3e25982f	0.16171335
113	0x3e95adb8	0.292341
114	0x3e3b53e3	0.18293719
115	0x3e37a946	0.17935666
116	0x3e53ab0c	0.20670718
117	0x3e2d1f3a	0.16906443
118	0x3e933ec0	0.28758812
119	0x3e96509d	0.29358378
120	0x3eb1a50a	0.34696227
121	0x3e9669f4	0.2937771
122	0x3e2045a8	0.15651572
123	0x3ea609e9	0.32429436
124	0x3ea19984	0.31562436
125	0x3e28cbf7	0.16484056
126	0xbe8ae0aa	-0.2712453
127	0x3e8c1d7f	0.27366254
128	0x3e129fd8	0.14318788
129	0x3e58f7fe	0.21188352
130	0x3d97b665	0.07407836
131	0x3e7ea55c	0.24867767
132	0x3e84caf7	0.259361
133	0x3e0fdfc7	0.14050208
134	0xbe5cbbe1	-0.21556045
135	0x3e888cba	0.26669866
136	0x3eb470fc	0.3524245
137	0x3dee208f	0.11627304
138	0x3e77d279	0.24201383
139	0x3e516772	0.20449618
140	0x3e1d775e	0.15377566
141	0x3e48b872	0.1960161
142	0x3e34e231	0.1766441
143	0x3eb7c628	0.3589337
144	0x3df1f43c	0.11814162
145	0x3ea117b3	0.31463394
146	0x3dde4a87	0.10854059
147	0x3eaba7e4	0.33526528
148	0x3e12f119	0.14349784
149	0x3e1e8496	0.15480265
150	0x3e9d9574	0.30778086
151	0x3e5cf982	0.21579555
152	0xbc432930	-0.011911675
153	0x3e872c50	0.26400995
154	0x3e3d7177	0.18500315
155	0x3e01b3cb	0.12666242
156	0xbda5f9e4	-0.081043035
157	0x3e81f212	0.25379997
158	0x3ec92f6e	0.39293998
159	0x3e82396f	0.25434443
160	0x3e2e57d6	0.17025694
161	0x3ea0ce3f	0.31407353
162	0xbe5e5e6e	-0.2171571
163	0x3db1cd63	0.086817525
164	0xbe81425b	-0.25245938
165	0x3e1d2aa8	0.15348303
166	0xbdf1ac12	-0.11800398
167	0x3e781e82	0.24230388
168	0xbe6a736d	-0.22895594
169	0x3e090083	0.13379101
170	0x3e34945b	0.17634718
171	0x3e7be524	0.24599129
172	0x3e9b9ee9	0.30394676
173	0x3dad6f3e	0.084684834
174	0x3e1b0c93	0.15141515
175	0x3e545408	0.2073518
176	0x3ce4947a	0.02790283
177	0x3e419347	0.18903838
178	0xbdc471ff	-0.095920555
179	0x3ea6de46	0.32591456
180	0x3e84672b	0.2585996
181	0x3e45bcc3	0.19310288
182	0x3e7dcde5	0.24785574
183	0x3e834a86	0.25642794
184	0x3e0830a6	0.13299808
185	0x3e2d2510	0.1690867
186	0x3e8af6ac	0.2714132
187	0x3e81ed71	0.25376466
188	0x3e97da97	0.29658958
189	0x3eb4adce	0.35288852
190	0x3eb1641b	0.34646687
191	0x3e2d8f05	0.16949089
192	0x3e94f9ca	0.29096824
193	0x3e90e161	0.2829695
194	0xbe850cf9	-0.2598646
195	0xbe73fc0f	-0.23826621
196	0x3e7e3773	0.2482584
197	0x3e16cbb9	0.14726152
198	0x3e934112	0.28760582
199	0x3ea937d9	0.3305042
200	0xbe944630	-0.289598
201	0xbe9ce3c0	-0.3064251
202	0xbe98ef5a	-0.2987011
203	0xbe3749be	-0.17899224
204	0xbea02150	-0.31275415
205	0x3df2494d	0.11830387
206	0xbceb370b	-0.02871277
207	0x3e377d06	0.17918786
208	0xbe527ab9	-0.20554627
209	0xbe42fb04	-0.19041067
210	0x3e0a1cc9	0.13487543
211	0x3e3248be	0.17410561
212	0xbe023b3c	-0.12717909
213	0xbe35931b	-0.17731898
214	0xbe84687a	-0.2586096
215	0xbe49a0c0	-0.19690228
216	0x3e752e78	0.23943508
217	0xbeb191ec	-0.34681642
218	0xbe4f3c10	-0.20237756
219	0xbe16b709	-0.1471826
220	0x3e95a597	0.29227898
221	0xbea6f144	-0.32605946
222	0xbe0fbea6	-0.1403757
223	0x3eaa5fb4	0.3327614
224	0x3e6cffad	0.23144408
225	0x3e501de0	0.20323896
226	0xbeb11e29	-0.34593323
227	0x3eb06ba3	0.3445712
228	0x3e95f662	0.29289538
229	0xbe16a637	-0.14711843
230	0x3c02e16a	0.007988313
231	0xbe58fbca	-0.211898
232	0xbe87a409	-0.26492336
233	0x3e6aee3a	0.22942439
234	0x3e82b17b	0.25526032
235	0x3e67f5af	0.22652315
236	0x3d15b4ca	0.036549367
237	0x3e1a7190	0.15082383
238	0xbeb7d3cd	-0.3590378
239	0xbe8fa03b	-0.28051934
240	0xbe88b904	-0.26703656
241	0xbe38913a	-0.1802415
242	0xbec98601	-0.3936005
243	0xbeb91d76	-0.3615529
244	0x3dbf0183	0.0932646
245	0x3e84166f	0.25798365
246	0xbdb27d7b	-0.0871534
247	0xbe4c246c	-0.19935769
248	0x3e5cce2c	0.21563023
249	0xbe9cf7f5	-0.30657926
250	0xbe6a0000	-0.22851562
251	0xbe14d4ea	-0.14534345
252	0x3eaf9eb3	0.34300765
253	0xbea6e0fa	-0.32593518
254	0x3e14bcdb	0.14525168
255	0xbe21475d	-0.15749879

lstm.weight_hh_l0 f4 [400, 100]
0	0x3e187c0b	0.14891069
1	0x3e68d834	0.22738725
2	0x3e42a5c7	0.19008552
3	0x3e16e25e	0.1473479
4	0xbea866ca	-0.32890922
5	0xbe0dbffa	-0.13842764
6	0x3e282471	0.16420151
7	0xbe8d0896	-0.27545613
8	0x3e98541c	0.2975167
9	0xbe4e8d20	-0.20171022
10	0xbe7aaaf9	-0.24479283
11	0xbe9390e5	-0.28821483
12	0x3e3602bf	0.17774485
13	0xbe774659	-0.24147929
14	0x3e3a98e0	0.1822238
15	0x3e3d542c	0.1848914
16	0xbe21fda2	-0.1581941
17	0xbe369939	-0.17831887
18	0x3e059a8b	0.13047235
19	0x3e0e9d9a	0.13927308
20	0xbd79ae9c	-0.060957536
21	0x3da36b94	0.07979503
22	0x3e868ebb	0.2628077
23	0xbe478346	-0.1948367
24	0xbe1bfdcf	-0.15233539
25	0xbe72119f	-0.23639534
26	0xbe2030de	-0.15643641
27	0xbe2e106f	-0.16998456
28	0xbe584658	-0.21120584
29	0x3e975fa0	0.29565144
30	0xbe99701c	-0.29968345
31	0x3e8b0e6e	0.27159446
32	0xbe23f781	-0.16012384
33	0xbe4c1bbf	-0.1993246
34	0x3e5039a2	0.20334485
35	0xbde0b644	-0.109722644
36	0xbe1d911b	-0.15387385
37	0xbe9269c6	-0.28596324
38	0xbea542d6	-0.32277554
39	0x3dbb330d	0.091405965
40	0x3e211cd2	0.1573365
41	0x3e30c195	0.17261346
42	0xbe452e09	-0.19255842
43	0x3e5d24fd	0.21596141
44	0xbe5e1dcb	-0.21691053
45	0xbdfb3445	-0.12265829
46	0x3e7d15d5	0.2471536
47	0x3e7c31a9	0.24628319
48	0x3d35ea6e	0.044413023
49	0x3dec1892	0.11528124
50	0x3e196440	0.14979649
51	0x3e7817da	0.24227849
52	0x3e5dcddc	0.2166056
53	0x3e24bf78	0.16088665
54	0xbe390e6b	-0.18071906
55	0x3e4e2560	0.20131445
56	0xbe55c97c	-0.20877641
57	0x3e573aeb	0.21018569
58	0xbe75dd2b	-0.2401015
59	0xbdbe6de1	-0.092983015
60	0xbe3235c1	-0.17403318
61	0xbe094c91	-0.13408114
62	0x3e167859	0.14694346
63	0x3e28a48e	0.16469023
64	0xbe2ff9ac	-0.17185086
65	0x3e3d4893	0.18484716
66	0x3e5ead49	0.2174579
67	0x3e020b6b	0.12699668
68	0xbe84ee40	-0.2596302
69	0xbe2f3e6b	-0.17113654
70	0xbe8b880c	-0.27252233
71	0x3e655a68	0.22397768
72	0xbdfab34c	-0.122412294
73	0xbea76426	-0.32693595
74	0xbe4bc158	-0.19897974
75	0x3e215bfa	0.15757743
76	0x3e1d5246	0.15363416
77	0x3cf15f86	0.029464494
78	0xbe07e03a	-0.1326913
79	0xbe2a3303	-0.16621022
80	0xbe3e664f	-0.18593715
81	0x3e918819	0.28424147
82	0xbe263720	-0.16231966
83	0xbddec717	-0.10877817
84	0x3de164dd	0.11005566
85	0xbe083ece	-0.13305208
86	0xbdf91b67	-0.1216343
87	0x3e6fa53d	0.23402877
88	0x3e34ec87	0.17668353
89	0xbdf3bfba	-0.11901803
90	0xbe76bb3f	-0.24094866
91	0xbe0ce21b	-0.13758127
92	0xbe8d0f99	-0.27550963
93	0x3ded7918	0.115953624
94	0x3e06b319	0.13154258
95	0x3e08f952	0.13376358
96	0x3e18af9c	0.1491074
97	0x3dd3a322	0.103338495
98	0xbe42c8fd	-0.19021983
99	0x3e19e56c	0.15028924
100	0x3e6ecee5	0.23321112
101	0x3e900f84	0.28136837
102	0x3e781e7f	0.24230383
103	0x3e072faa	0.13201776
104	0xbe9f1c18	-0.3107612
105	0xbe3c6b2f	-0.18400262
106	0x3e48505a	0.19561902
107	0xbe85dade	-0.26143545
108	0x3e273605	0.163292
109	0xbe0353c4	-0.12824923
110	0xbdf00ce4	-0.11721209
111	0xbe9051e4	-0.28187478
112	0x3e970756	0.29497784
113	0xbe851769	-0.25994423
114	0x3e0f1db6	0.13976178
115	0x3dee5c8e	0.11638747
116	0xbddb2617	-0.107006244
117	0xbdc3cf84	-0.09561065
118	0x3e9e51b4	0.3092171
119	0x3e5f19ce	0.21787187
120	0xbe6554f9	-0.22395696
121	0x3e7d6952	0.24747208
122	0x3e2f1771	0.17098786
123	0xbe8d64dd	-0.27616015
124	0xbe8079e2	-0.2509299
125	0xbe023cf0	-0.12718558
126	0xbe94c6c6	-0.29057902
127	0xbe8fbb1b	-0.28072438
128	0xbdd35a9f	-0.10320019
129	0x3dc5ac86	0.09652047
130	0xbe2a13ce	-0.16609117
131	0x3e938f84	0.2882043
132	0xbe0a6c7d	-0.13517947
133	0xbe51872a	-0.20461717
134	0x3e90b362	0.28261858
135	0xbdc6bdaa	-0.09704144
136	0xbe7012d3	-0.23444681
137	0xbe1c50fa	-0.15265265
138	0xbd70fcc8	-0.05883482
139	0x3e0158a8	0.12631476
140	0x3e3ef5a4	0.18648392
141	0x3e8490f6	0.25891846
142	0xbe7a7934	-0.24460298
143	0x3e32aeb2	0.17449453
144	0xbe71cc34	-0.23613054
145	0xbde93712	-0.11387457
146	0x3e7eb0a5	0.24872072
147	0x3e8b7bab	0.2724279
148	0x3dabdcdc	0.08391735
149	0x3e741d97	0.23839413
150	0x3e348de9	0.1763226
151	0x3e4eeb7c	0.20207018
152	0x3e62a535	0.22133334
153	0x3e7d77b0	0.24752688
154	0xbe88c881	-0.26715472
155	0x3e4b0698	0.19826734
156	0xbe1e44e4	-0.15455967
157	0x3e7081f5	0.23487075
158	0xbe472695	-0.19448312
159	0xbe413e98	-0.18871534
160	0xbe1af123	-0.15131049
161	0xbe6fe477	-0.23426996
162	0x3e8ba3fc	0.27273548
163	0x3dfafd75	0.12255374
164	0xbe97b953	-0.2963358
165	0x3e5bbe48	0.21459305
166	0x3e81cc6b	0.2535127
167	0x3e5fcd6e	0.21855709
168	0xbe4739f8	-0.19455707
169	0xbe1bdddd	-0.15221353
170	0xbe8bf269	-0.27333382
171	0x3e750671	0.23928238
172	0xbe08dcf6	-0.1336554
173	0xbdf0e66d	-0.117627
174	0xbe3511dd	-0.17682596
175	0x3e7a6b74	0.24455053
176	0x3d65a981	0.056069855
177	0x3dc8f9e6	0.09813289
178	0xbe91c8be	-0.28473467
179	0xbe2a644e	-0.16639826
180	0xbe39f399	-0.18159331
181	0x3e59e9b1	0.21280552
182	0xbe846357	-0.2585704
183	0xbe437ad2	-0.19089821
184	0x3e85e663	0.26152334
185	0xbe8c5413	-0.27407894
186	0xbe3837a6	-0.17989978
187	0x3e16e9aa	0.14737573
188	0x3e1704e7	0.14747964
189	0xbe8a6061	-0.27026656
190	0x3d8b7562	0.06809498
191	0xbdfa8d6f	-0.122340076
192	0xbe87e723	-0.2654353
193	0x3e8a6c55	0.27035776
194	0x3e7cd06c	0.24688882
195	0x3e5c400c	0.21508807
196	0x3e88af34	0.2669617
197	0x3e5fa3f7	0.21839891
198	0xbe22eeee	-0.15911457
199	0x3e88eb3c	0.2674197
200	0x3e516257	0.2044767
201	0x3e9969bd	0.29963484
202	0x3e5d1c35	0.21592791
203	0x3e817e02	0.2529145
204	0xbe6b59a7	-0.22983418
205	0xbe6900c8	-0.22754204
206	0x3e609791	0.21932818
207	0xbdf25034	-0.11831704
208	0x3e274dc3	0.16338257
209	0xbe427bd6	-0.18992552
210	0xbeb6af27	-0.35680506
211	0xbea257a5	-0.31707492
212	0x3e6d20fa	0.23157111
213	0x3d08dc31	0.033413116
214	0xbd02a265	-0.031893153
215	0x3e63fc09	0.22264113
216	0xbe90f5ae	-0.2831244
217	0xbba9f8a3	-0.0051871105
218	0x3e815fa1	0.25268272
219	0x3e9cff1b	0.3066338
220	0xbe992e21	-0.29918006
221	0x3e9140fb	0.2836989
222	0x3e96fed7	0.29491302
223	0xbe4d79e2	-0.20066026
224	0xbe7eb243	-0.24872689
225	0xbdbf592b	-0.09343179
226	0xbe8e9b59	-0.27852896
227	0xbc70e3a8	-0.014702715
228	0xbe474492	-0.19459751
229	0x3c9eb5f0	0.019373864
230	0xbd9ae57f	-0.07563304
231	0x3e8a6677	0.270313
232	0x3dcfd085	0.10147194
233	0xbe6185ed	-0.22023745
234	0x3e94b1b2	0.2904182
235	0xbe95691f	-0.29181764
236	0x3d3b698d	0.045754958
237	0xbeb296d3	-0.34880695
238	0x3e066bc9	0.13127054
239	0x3e419862	0.18905786
240	0x3deefffe	0.116699204
241	0x3e9e476f	0.30913875
242	0x3d100042	0.035156496
243	0x3e0b002c	0.13574284
244	0xbe32fc54	-0.17479068
245	0xbe7a5888	-0.24447834
246	0x3e6bf9a4	0.23044449
247	0x3e8e6036	0.27807778
248	0xbdade810	-0.08491528
249	0x3e595e7a	0.21227446
250	0x3e32b2eb	0.17451064
251	0x3de28145	0.110598125
252	0x3d66cff2	0.056350656
253	0x3e5836ab	0.21114604
254	0xbeae58a5	-0.34052005
255	0x3e99c7ae	0.30035156

lstm.bias_ih_l0 f4 [400]
0	0xbd4a7dfb	-0.04943655
1	0xbdbf6dfc	-0.0934715
2	0xbe23d860	-0.1600051
3	0xbdfee1f6	-0.124454424
4	0xbe3507ca	-0.17678753
5	0xbe8f5f3a	-0.2800234
6	0xbe110837	-0.1416329
7	0xbea64321	-0.3247309
8	0xbea2ed4a	-0.31821662
9	0xbe45fda5	-0.19335039
10	0xbdaa6413	-0.08319869
11	0xbe850879	-0.25983027
12	0xbe838a87	-0.25691625
13	0xbe71532b	-0.23566882
14	0xbe29cd00	-0.16582108
15	0xbe9238d8	-0.28558993
16	0xbd982aa1	-0.07430006
17	0xbe6e6e35	-0.23284228
18	0xbe873a31	-0.26411584
19	0xbe8e2e48	-0.27769685
20	0xbe35c688	-0.17751515
21	0xbd7f81c3	-0.06237961
22	0x3dd86dc6	0.105678126
23	0xbdd0ae53	-0.101895
24	0x3e26698d	0.16251202
25	0xbe9a4532	-0.30130917
26	0x3e54df96	0.20788416
27	0x3ea3b02e	0.31970352
28	0xbdd6b2d5	-0.10483328
29	0xbe87c5da	-0.26518136
30	0xbeadd6dc	-0.33952987
31	0xbdbf9d66	-0.09356193
32	0xbe795841	-0.24350072
33	0xbd8b2fbb	-0.06796213
34	0xbe620c7b	-0.22075073
35	0xbe935f4b	-0.2878364
36	0xbec45744	-0.38347828
37	0xbe86a0cf	-0.26294562
38	0xbc0b6176	-0.008507123
39	0xbe23c8ff	-0.15994643
40	0xbdeb0440	-0.1147542
41	0xbe2bc90e	-0.16775915
42	0xbdd5ff5e	-0.10449098
43	0xbdd951aa	-0.10611279
44	0xbe9f1307	-0.31069204
45	0xbea41486	-0.32046908
46	0xbe7ac468	-0.24488986
47	0xbe7c321a	-0.24628487
48	0xbeba9aa8	-0.36446118
49	0x3dbae803	0.09126284
50	0xbded890a	-0.11598404
51	0xbe83f423	-0.257722
52	0xbc11d3a5	-0.008900558
53	0xbe9df8ec	-0.30853975
54	0xbe8c64fb	-0.27420792
55	0xbe90ef98	-0.28307796
56	0xbeb4c142	-0.35303694
57	0xbea5ef7f	-0.32409284
58	0xbe4e8eec	-0.20171708
59	0x3e42478f	0.1897261
60	0x3cd1d788	0.025615469
61	0xbe2fa9ad	-0.1715457
62	0xbe13f278	-0.14447963
63	0xbdfd8419	-0.12378711
64	0x3dafdfd6	0.08587615
65	0xbe4629a7	-0.19351827
66	0xbe2fa58c	-0.17152995
67	0x3d23ccea	0.039990343
68	0xbe87fb1a	-0.26558763
69	0xbced6cfb	-0.02898263
70	0xbe9d8f32	-0.30773312
71	0xbead7031	-0.33874658
72	0x3e02dded	0.1277997
73	0xbe2a3064	-0.16620022
74	0xbe94a5c5	-0.29032722
75	0x3c93c99d	0.018040473
76	0xbe336435	-0.17518695
77	0xbe3a6f87	-0.18206607
78	0xbe0e56ec	-0.13900346
79	0xbe28062f	-0.16408609
80	0xbd878cab	-0.06618627
81	0xbda6a565	-0.08137015
82	0xbe32cc1d	-0.17460676
83	0xbe62efcd	-0.22161789
84	0xbd2162e4	-0.03940095
85	0xbdd568bb	-0.104203664
86	0xbe02a6bd	-0.12758918
87	0xbd9e4170	-0.07727325
88	0xbddaeb35	-0.106893934
89	0xbe8116a5	-0.2521259
90	0xbe3d69d7	-0.18497406
91	0x3da53e07	0.080684714
92	0xbe14ae9b	-0.14519732
93	0xbe85e9fe	-0.26155084
94	0xbe69fdf2	-0.22850779
95	0xbe905130	-0.2818694
96	0xbe4b7e58	-0.19872415
97	0xbdd83786	-0.10557465
98	0xbea4d95f	-0.3219709
99	0xbe8daf3e	-0.27672762
100	0xbd0e029a	-0.03467045
101	0xbe26fac9	-0.16306604
102	0xbe1b5b4a	-0.15171543
103	0xbe09d1bf	-0.13458918
104	0xbe4f40a5	-0.20239504
105	0xbea37706	-0.31926745
106	0xbe699028	-0.22808897
107	0xbe910762	-0.28325945
108	0xbe914678	-0.28374076
109	0xbe8ea77f	-0.27862164
110	0xbe409d27	-0.18809949
111	0xbe813809	-0.25238064
112	0xbe3f6a77	-0.18692957
113	0xbe83e583	-0.2576104
114	0xbe34548d	-0.17610379
115	0xbeaa1436	-0.33218545
116	0xbe450ef9	-0.19243993
117	0xbdf4dd90	-0.11956322
118	0xbe803e2f	-0.25047442
119	0xbdd673bb	-0.104712926
120	0xbdf540b1	-0.119752295
121	0xbd794bf1	-0.06086344
122	0x3cf2600b	0.029586812
123	0xbdc0441b	-0.0938799
124	0xbd9fc281	-0.078007706
125	0xbea8293c	-0.3284396
126	0x3ca7496b	0.02042075
127	0x3e626360	0.22108221
128	0xbe414829	-0.18875183
129	0xbe927e40	-0.28611946
130	0xbe91b9fe	-0.28462213
131	0xbe2603b5	-0.16212352
132	0xbe2b3493	-0.16719274
133	0xbe43505d	-0.19073625
134	0xbe455331	-0.19270016
135	0xbe8a275c	-0.26983154
136	0xbe979318	-0.2960441
137	0xbe91d41f	-0.28482148
138	0xbd2b88f1	-0.041878644
139	0xbe5074c9	-0.2035705
140	0xbe651eec	-0.22375077
141	0xbe127cb9	-0.1430539
142	0xbe1c714c	-0.15277594
143	0xbdd696f6	-0.10478012
144	0xbecf9547	-0.40543577
145	0xbe430ccb	-0.19047849
146	0xbe8f1af6	-0.27950257
147	0xbe8437f9	-0.25823954
148	0xbe8cd56e	-0.27506584
149	0xbe16abb5	-0.14713939
150	0xbe0f0b15	-0.13969071
151	0xbe1fd2d7	-0.15607773
152	0xbe33e953	-0.17569475
153	0xbe7fc685	-0.24978073
154	0xbe33a9f4	-0.175453
155	0xbe2597ce	-0.1617119
156	0xbeaaf955	-0.3339335
157	0xbe93b280	-0.28847122
158	0xbe63556e	-0.22200558
159	0x3e1a527c	0.15070528
160	0xbdeabb33	-0.11461487
161	0xbe84fec9	-0.25975636
162	0xbe30c200	-0.17261505
163	0xbe3fff43	-0.18749718
164	0xbd0a9baf	-0.033839878
165	0xbdb51fef	-0.088439815
166	0xbebfd8ca	-0.37470084
167	0xbda9cb74	-0.08290759
168	0xbe957aaf	-0.29195163
169	0xbda49946	-0.08037047
170	0xbe1547eb	-0.14578216
171	0xbea8e34a	-0.32985908
172	0xbbd1e446	-0.006405386
173	0xbe1248e7	-0.14285623
174	0xbe2e9bf9	-0.17051686
175	0xbdcc48db	-0.099748336
176	0xbe481f6b	-0.19543235
177	0xbe7c2972	-0.24625185
178	0xbe9d4441	-0.30716136
179	0xbe3efa80	-0.18650246
180	0xbd53ac9d	-0.05167829
181	0xbe4491eb	-0.19196288
182	0xbe813077	-0.25232288
183	0xbe851366	-0.25991362
184	0xbdfbd692	-0.122967854
185	0xbe0aaa56	-0.1354154
186	0xbe6cc1be	-0.23120782
187	0xbe0008f8	-0.12503421
188	0xbe362d32	-0.17790678
189	0xbe6d5d52	-0.2318013
190	0xbe2d3997	-0.169165
191	0x3d6e734a	0.058215417
192	0xbe48bb85	-0.19602783
193	0xbd87d2f1	-0.06632031
194	0xbe303435	-0.17207415
195	0xbe315425	-0.17317255
196	0xbe1198d6	-0.14218459
197	0xbdf402dc	-0.11914608
198	0xbe15fdbe	-0.14647576
199	0xbe8de2b0	-0.2771201
200	0xbe8d0a8e	-0.27547115
201	0xbe413284	-0.18866926
202	0xbe760a69	-0.24027409
203	0x3aa4d110	0.0012574513
204	0x3db1db01	0.0868435
205	0x3d82ef90	0.06393349
206	0x3dff71ab	0.12472852
207	0x3e7723cd	0.2413475
208	0xbe743875	-0.23849662
209	0xbe28a9c8	-0.16471016
210	0x3ea25851	0.31708005
211	0x3e992dd6	0.29917783
212	0xbe357062	-0.17718652
213	0x3ddaff1b	0.10693189
214	0xbdc78d8d	-0.097437955
215	0xbc4b126e	-0.012394531
216	0x3e8fdf4b	0.28100047
217	0x3c11cdfe	0.00889921
218	0xbe0e1e2b	-0.13878696
219	0xbe928449	-0.2861655
220	0x3e12bafe	0.14329144
221	0xbe76e2b8	-0.24109924
222	0xbeae0dac	-0.33994806
223	0x3e7185df	0.23586224
224	0x3ea88c84	0.32919705
225	0x3da92dd7	0.082606964
226	0xbe39ae56	-0.1813291
227	0x3e3ff9c2	0.18747619
228	0x3e1d9543	0.1538897
229	0x3dd724fd	0.10505102
230	0x3e184eb9	0.1487378
231	0xbe8eeb24	-0.27913773
232	0xbe299364	-0.16560131
233	0x3e898e9b	0.26866612
234	0xbd86c565	-0.06580619
235	0x3e24bc40	0.16087437
236	0x3dc196a2	0.09452559
237	0x3e32d820	0.17465258
238	0xbdc5f684	-0.0966616
239	0xbe2e5dee	-0.17028019
240	0xbe46c022	-0.1940923
241	0xbe6eff08	-0.23339474
242	0x3e28c65b	0.16481917
243	0xbd105c39	-0.0352442
244	0xbda7a325	-0.08185414
245	0x3e968dbb	0.29405007
246	0xbe68b8d9	-0.22726764
247	0xbe77f87d	-0.24215885
248	0x3e019fe3	0.12658648
249	0xbe748e9d	-0.23882528
250	0x3c1cc5ad	0.009568614
251	0xbe1d419b	-0.15357058
252	0xbd75bb8f	-0.059993323
253	0xbe8134a7	-0.25235483
254	0x3e25e8a7	0.16202031
255	0xbe8e04b1	-0.27737954

lstm.bias_hh_l0 f4 [400]
0	0x3d380352	0.04492504
1	0xbe1d5edb	-0.15368216
2	0xbe7baae4	-0.24576908
3	0xbd6d2e6f	-0.05790561
4	0xbe4a4339	-0.19752206
5	0xbe8e8220	-0.27833652
6	0xbd77b42e	-0.060474567
7	0xbe1d7bbc	-0.15379232
8	0xbe8ee5e3	-0.27909765
9	0xbe8adc27	-0.27121088
10	0xbe3a97f9	-0.18222035
11	0xbdf43592	-0.1192428
12	0xbe65ec3b	-0.22453396
13	0xbea51bf7	-0.32247898
14	0xbe98bb64	-0.29830468
15	0xbe918c2f	-0.28427264
16	0xbdada039	-0.08477826
17	0xbd91d5f0	-0.071208835
18	0xbe98cdd1	-0.29844525
19	0xbe8b334a	-0.27187568
20	0xbe5de552	-0.2166951
21	0xbdaefc7b	-0.085442506
22	0x3d1c570d	0.038168956
23	0xbd155a3c	-0.036463007
24	0x3d20bc5d	0.039242137
25	0xbe45d048	-0.19317734
26	0x3db2b3b0	0.08725679
27	0x3e947a41	0.28999522
28	0xbd9a6576	-0.075388834
29	0xbe904b8f	-0.28182647
30	0xbe811712	-0.25212914
31	0xbe239d38	-0.15977943
32	0xbe533911	-0.20627238
33	0xbe3e8173	-0.18604068
34	0xbe42fd0f	-0.19041847
35	0xbe7f5de4	-0.2493816
36	0xbe80ee2e	-0.25181717
37	0xbe8d30ac	-0.27576196
38	0xbd49c242	-0.049257524
39	0xbe0ae65e	-0.1356444
40	0xbe183355	-0.14863332
41	0xbe1cbc4b	-0.15306203
42	0xbd944eb4	-0.07241574
43	0xbdc29999	-0.09501953
44	0xbe9f6da9	-0.31138352
45	0xbe15255b	-0.14565031
46	0xbe46c68b	-0.19411676
47	0xbe95c8e1	-0.2925482
48	0xbe49336e	-0.19648525
49	0x3e331be0	0.17491102
50	0xbe0aadf0	-0.13542914
51	0xbe30625b	-0.1722502
52	0xbe07c93f	-0.13260363
53	0xbe1a3a07	-0.15061198
54	0xbe72361a	-0.2365345
55	0xbe2ff2e2	-0.17182496
56	0xbe9175e6	-0.28410262
57	0xbe3c96c7	-0.18416892
58	0xbda79bf2	-0.08184041
59	0x3e3610ec	0.17779893
60	0xbd42bc7d	-0.047543038
61	0xbe510ffd	-0.20416255
62	0xbe3f2aba	-0.18668643
63	0xbe638b7c	-0.22221178
64	0x3dbcf70d	0.09226809
65	0xbe44032d	-0.19141836
66	0xbe81136f	-0.2521014
67	0x3d75e927	0.060036805
68	0xbe50a0e8	-0.20373881
69	0xbd052fe0	-0.03251636
70	0xbe972b4c	-0.2952522
71	0xbe8382ca	-0.25685722
72	0x3e08e499	0.13368453
73	0xbdf76239	-0.12079281
74	0xbe9bd59a	-0.30436403
75	0x3e003704	0.12520987
76	0xbe2d5a29	-0.16928925
77	0xbe62f6eb	-0.22164504
78	0xbe72a908	-0.23697293
79	0xbdf37b2b	-0.11888727
80	0xbe43fb61	-0.19138862
81	0xbdfd0450	-0.12354338
82	0xbe88f3ee	-0.26748604
83	0xbe3e9f45	-0.18615444
84	0xbe284132	-0.1643112
85	0xbd5e96f7	-0.05434319
86	0xbe2ec202	-0.17066196
87	0xbe386ebc	-0.18010992
88	0xbe4597cf	-0.19296192
89	0xbea3dd29	-0.3200467
90	0xbe1e5add	-0.15464349
91	0x3dd95beb	0.10613235
92	0xbe4e55a6	-0.2014986
93	0xbe652946	-0.22379026
94	0xbe4e252c	-0.20131367
95	0xbea53c7c	-0.32272708
96	0xbe2ba3a9	-0.1676165
97	0xbe3369a2	-0.17520764
98	0xbea9cab1	-0.33162454
99	0xbe8f8c13	-0.28036556
100	0xbe008743	-0.12551598
101	0xbcc401e1	-0.023926677
102	0xbe33cd67	-0.17558824
103	0xbe40a526	-0.18812999
104	0xbecbf8a8	-0.39838147
105	0xbe1d4688	-0.15358937
106	0xbe609db9	-0.21935166
107	0xbe81b1e0	-0.2533102
108	0xbe9aedd8	-0.30259585
109	0xbe8e4e4e	-0.27794117
110	0xbe83a5aa	-0.2571233
111	0xbe5ae483	-0.21376233
112	0xbe70ac7c	-0.23503298
113	0xbe819acb	-0.2531341
114	0xbe2dfde6	-0.16991386
115	0xbe9ee912	-0.31037194
116	0xbe1443b6	-0.14478955
117	0xbe7ee9df	-0.24893902
118	0xbe50b7e0	-0.20382643
119	0xbdf10ca2	-0.11769988
120	0xbe407656	-0.18795142
121	0xbd092f94	-0.03349264
122	0xbd8f2335	-0.06989137
123	0xbdb01f69	-0.08599741
124	0xbd9b3c78	-0.07579893
125	0xbea63bbb	-0.32467446
126	0x3e0d9855	0.13827641
127	0x3e2b971e	0.16756865
128	0xbdc42fcc	-0.09579429
129	0xbe3c73b6	-0.18403515
130	0xbe985450	-0.29751825
131	0xbe30511a	-0.17218438
132	0xbe4295e5	-0.19002493
133	0xbe4512d7	-0.19245468
134	0xbeae040f	-0.3398747
135	0xbdbeff47	-0.09326034
136	0xbe979af0	-0.29610395
137	0xbdeef841	-0.116684444
138	0xbe189764	-0.14901501
139	0xbe343410	-0.17597985
140	0xbe5fa3a4	-0.21839768
141	0xbe8485fe	-0.25883478
142	0xbe87af3f	-0.2650089
143	0xbdd84eac	-0.105618805
144	0xbe83f571	-0.25773194
145	0xbdaa7ff6	-0.08325188
146	0xbe5ced63	-0.21574931
147	0xbe32d112	-0.17462566
148	0xbeb08c3c	-0.3448199
149	0xbe16a1fc	-0.1471023
150	0xbe632ed6	-0.22185835
151	0xbe846674	-0.25859416
152	0xbd626266	-0.05526962
153	0xbe28a0d5	-0.16467603
154	0xbe9447d2	-0.28961045
155	0xbe5507c6	-0.20803747
156	0xbe9a76bb	-0.3016871
157	0xbe947c94	-0.29001296
158	0xbe5c2150	-0.21497083
159	0x3e03bf44	0.12865931
160	0xbd2828e7	-0.041054633
161	0xbe0381bc	-0.12842458
162	0xbe61c09f	-0.22046135
163	0xbe31df6d	-0.17370386
164	0xbd0e600f	-0.034759577
165	0xbe0b8d84	-0.13628203
166	0xbe83f39c	-0.25771797
167	0xbc07b160	-0.008282036
168	0xbebbc03b	-0.36670098
169	0xbe4b6256	-0.19861731
170	0xbe02b21a	-0.12763253
171	0xbe7c33a3	-0.24629073
172	0xbd67d13a	-0.05659602
173	0xbe3ddc64	-0.18541104
174	0xbe9a8558	-0.30179858
175	0xbc798e0b	-0.01523162
176	0xbe5235d6	-0.2052835
177	0xbe797d76	-0.24364266
178	0xbe138fdc	-0.14410347
179	0xbe34094c	-0.17581671
180	0xbe2aad7c	-0.16667742
181	0xbe1c2086	-0.15246782
182	0xbe4cc7ce	-0.19998094
183	0xbe2ae3ae	-0.16688415
184	0xbe846fda	-0.25866586
185	0xbe2ab55d	-0.16670747
186	0xbe4184aa	-0.18898264
187	0xbe2fb466	-0.1715866
188	0xbdff3647	-0.124615245
189	0xbec98c1e	-0.39364713
190	0xbe896301	-0.26833346
191	0x3cdf467d	0.027255291
192	0xbe1e1cad	-0.15440626
193	0xbdfce89c	-0.12349054
194	0xbe51fab9	-0.205058
195	0xbe963f3a	-0.29345113
196	0xbe036831	-0.12832715
197	0xbe80cf75	-0.25158277
198	0xbe957f10	-0.29198503
199	0xbe8be231	-0.27321008
200	0xbe776bb0	-0.24162173
201	0xbe964258	-0.2934749
202	0xbd893233	-0.06699028
203	0xbd6ca139	-0.05777094
204	0x3deff601	0.117168434
205	0x3e111201	0.14167024
206	0x3d8c9030	0.06863439
207	0x3e817b96	0.252896
208	0xbe479431	-0.19490124
209	0xbaf04044	-0.00183297
210	0x3e1d72a8	0.15375769
211	0x3e280a31	0.16410138
212	0xbe8a8d86	-0.270611
213	0x3e607d75	0.21922858
214	0xbe719f63	-0.23595957
215	0xbdf9996c	-0.12187466
216	0x3e81222b	0.2522138
217	0xbd86ec61	-0.065880544
218	0xbe6f174b	-0.2334873
219	0xbe9fa4dc	-0.31180465
220	0x3ddb3fe7	0.10705548
221	0xbe676c12	-0.2259982
222	0xbeaadf69	-0.33373573
223	0x3e40b433	0.1881874
224	0x3ea1a54a	0.31571418
225	0x3d175e34	0.036955073
226	0xbe453d4e	-0.19261667
227	0x3e759a18	0.23984563
228	0x3e9ab13e	0.3021335
229	0xbd153d0c	-0.036435172
230	0x3e856a0e	0.26057476
231	0xbe82097d	-0.25397864
232	0xbe5ce0d2	-0.21570137
233	0x3e98919e	0.29798597
234	0xbd3fbf73	-0.04681344
235	0x3e92df0a	0.2868579
236	0xbd14da8e	-0.036341242
237	0x3e94ca50	0.29060602
238	0x3bd30e14	0.006440887
239	0xbe9c6557	-0.30546066
240	0xbe8da6dc	-0.27666366
241	0xbe8bb249	-0.27284458
242	0x3db72fbd	0.08944652
243	0xbdf21254	-0.11819902
244	0xbd77f5a9	-0.060537014
245	0x3e4afb57	0.19822441
246	0xbe28e48f	-0.16493438
247	0xbdadba30	-0.08482778
248	0x3da1cc29	0.079002686
249	0xbe826b8b	-0.25472674
250	0xbda12e8e	-0.07870208
251	0xbe29fbc7	-0.16599952
252	0xbda3b59e	-0.07993625
253	0xbe458613	-0.19289427
254	0x3e991ca8	0.29904675
255	0xbe7e4595	-0.24831231

linear.0.weight f4 [1, 100]
0	0xbe94e8fa	-0.29083997
1	0xbea99a4a	-0.33125526
2	0xbe3b314b	-0.18280523
3	0xbd89c340	-0.06726694
4	0xbd3d6928	-0.046242863
5	0x3c32d630	0.010915324
6	0x3c3f6f42	0.011684241
7	0x3e611e53	0.21984224
8	0xbe3f37ed	-0.18673678
9	0x3cf831ef	0.030297248
10	0x3e660ed8	0.224666
11	0x3e3eade7	0.18621026
12	0xbd7d84bf	-0.061894175
13	0xbc792d3a	-0.015208537
14	0xbe55a67a	-0.20864287
15	0xbe5a0a74	-0.2129305
16	0x3e9c66f3	0.30547294
17	0x3e01a565	0.1266075
18	0xbe64d288	-0.22345936
19	0xbe7c6412	-0.24647549
20	0x3e636c3a	0.22209254
21	0xbe8f322b	-0.27967963
22	0xbe9e5749	-0.30925968
23	0x3e9d4267	0.30714723
24	0x3ea064e0	0.31326962
25	0x3e5eb2c4	0.21747881
26	0xbd9ee88b	-0.07759198
27	0x3e9c680f	0.3054814
28	0x3e86efe7	0.26354906
29	0x3d06f081	0.032944206
30	0xbdb06141	-0.086123
31	0xbe8040e5	-0.2504951
32	0xbe2667fd	-0.16250606
33	0x3e85f4c3	0.261633
34	0x3d6ba758	0.05753264
35	0x3e6e61d9	0.23279513
36	0x3d7b4c48	0.061352044
37	0x3e10f81a	0.14157143
38	0xbbd6c194	-0.006553838
39	0xbe8a927f	-0.27064893
40	0xbe8c1e76	-0.2736699
41	0xbe4a9413	-0.19783048
42	0xbd2256cc	-0.039633557
43	0xbe563ea6	-0.20922336
44	0x3d39b78a	0.045341052
45	0x3e6de862	0.23233178
46	0xbe10ea35	-0.14151843
47	0xbe10b623	-0.1413198
48	0xbe2b8321	-0.1674924
49	0xbe9136b9	-0.28362063
50	0xbda61099	-0.081086345
51	0xbe4cca00	-0.19998932
52	0xbdb61a2c	-0.08891711
53	0xbe7b0ac7	-0.2451583
54	0x3e769115	0.24078782
55	0xbe45af5d	-0.19305177
56	0x3e46e060	0.1942153
57	0x3e1427ec	0.14468354
58	0x3e602929	0.21890701
59	0x3e9f1b3d	0.3107547
60	0x3ea1574e	0.3151192
61	0x3e69dad3	0.22837381
62	0xbd78f410	-0.06077963
63	0xbe2779df	-0.16355084
64	0xbe09d552	-0.13460281
65	0xbd698be8	-0.05701819
66	0xbe04c3af	-0.12965272
67	0xbeb00384	-0.34377682
68	0xbbec2b81	-0.0072073345
69	0x3e880ed8	0.26573825
70	0x3e07fb0c	0.1327936
71	0xbe6eff25	-0.23339517
72	0x3e962244	0.29323018
73	0x3de755fb	0.11295696
74	0x3e4d6018	0.20056188
75	0xbe918491	-0.28421453
76	0xbd8ac563	-0.0677593
77	0xbe1cdec8	-0.1531936
78	0xbd21b82c	-0.03948228
79	0x3e9ac882	0.302311
80	0x3e567a65	0.20945127
81	0xbe86670d	-0.26250497
82	0x3e64a24f	0.22327541
83	0x3e643fe3	0.22289996
84	0xbe8708b2	-0.26373821
85	0x3e8c0bcc	0.2735275
86	0x3e742f12	0.23846081
87	0xbe83f49a	-0.25772554
88	0xbe553678	-0.2082156
89	0x3cc408c0	0.023929954
90	0x3df12d20	0.11776185
91	0x3e97ba76	0.29634446
92	0x3e59b088	0.21258748
93	0xbe848866	-0.25885314
94	0xbd1478ff	-0.036248203
95	0x3d70f7d7	0.05883011
96	0xbe74c905	-0.23904808
97	0xbe676921	-0.22598697
98	0x3e40f973	0.18845157
99	0x3cbbe749	0.022937434
