saved_models/generator_weights.pth (torch, 521120 bytes, 13 tensors)

lstm0.weight_ih_l0 f4 [128, 1]
-0.10065703 -0.1205234 -0.07110635 -0.08293445 0.12055935 -0.10480034 -0.14338405 0.13319793
0.08596376 -0.058379557 -0.08101324 0.02645042 0.0716359 0.044324927 0.08861649 -0.22181313
-0.11863111 -0.07260214 -0.10038982 -0.119614154 0.09617168 0.11323646 0.00978204 0.12580831
-0.17189373 0.028330935 0.032383572 -0.083480395 0.06265981 -0.15421896 -0.020248236 -0.16065972
-0.13235408 -0.077775605 -0.16400951 -0.1446069 0.037330035 0.0077619106 0.07481035 0.14499162
0.029386397 -0.13903931 -0.13084045 -0.019425405 0.14688805 -0.07534557 -0.07047283 -0.13810928
0.08029347 -0.010078898 0.04541568 -0.11287581 -0.034895692 -0.13605903 0.07003977 0.08590285
-0.17875992 -0.12564015 0.07901596 0.15166757 0.0855535 -0.06375874 0.07965297 -0.004741502
-0.16806373 0.048052587 0.09805705 -0.025172839 -0.17423518 -0.017619055 -0.09030019 -0.21941109
0.027550893 0.083592996 0.08988441 -0.064747326 -0.17358883 0.037494 -0.06614481 0.029061127
0.06721953 -0.17055863 -0.034943767 0.12659794 -0.20688772 -0.079287454 0.10805168 0.009182107
-0.047793318 -0.06745388 0.05075226 0.14959213 -0.14809205 -0.030541351 -0.07423533 0.09383158
-0.048221722 0.013946696 0.08126591 -0.03887734 0.19522652 0.033570096 0.048245367 0.17315598
0.11545113 0.059698425 0.18593746 0.16416246 -0.021494221 -0.081638254 0.17411298 0.12982678
0.09592846 -0.16567858 -0.031632368 -0.1199091 0.24031052 -0.12733218 -0.077167355 -0.10696714
-0.17029683 -0.0009175716 0.050147258 0.20660646 -0.15140638 0.17173047 -0.06806144 -0.15690427
00000000: 4625 cebd f9d4 f6bd 35a0 91bd 89d9 a9bd
00000010: d2e7 f63d 90a1 d6bd 45d3 12be 0a65 083e
00000020: c50d b03d 671f 6fbd 45ea a5bd 8dae d83c
00000030: d8b5 923d 0e8e 353d 907c b53d fb22 63be
00000040: def4 f2bd 6eb0 94bd 2e99 cdbd 44f8 f4bd
00000050: a8f5 c43d 84e8 e73d d944 203c e5d3 003e
00000060: e904 30be 4716 e83c a3a4 043d c5f7 aabd
00000070: c953 803d 93eb 1dbe a1df a5bc fb83 24be
00000080: d487 07be d148 9fbd 1cf2 27be d513 14be
00000090: 61e7 183d a057 fe3b 2b36 993d af78 143e
000000a0: bebb f03c 5260 0ebe 0afb 05be 0722 9fbc
000000b0: d269 163e c74e 9abd 0f54 90bd 856c 0dbe
000000c0: e770 a43d f621 25bc cb05 3a3d 6f2b e7bd
000000d0: c9ee 0ebd 0f53 0bbe 0371 8f3d d5ed af3d
000000e0: d70c 37be d0a7 00be 1fd3 a13d be4e 1b3e
000000f0: ac36 af3d f193 82bd 1921 a33d 9a5e 9bbb
00000100: e618 2cbe cad2 443d 22d2 c83d 4537 cebc
00000110: b56a 32be d655 90bc 4eef b8bd 4dad 60be
00000120: 69b2 e13c ce32 ab3d 5115 b83d 3f9a 84bd
00000130: 45c1 31be 4f93 193d ee76 87bd 9a11 ee3c
00000140: 65aa 893d eca6 2ebe 3221 0fbd e4a2 013e
00000150: 60da 53be 7661 a2bd 334a dd3d 8c70 163c
00000160: edc2 43bd 4325 8abd 9ae1 4f3d ae2e 193e
00000170: 71a5 17be db31 fabc b108 98bd c52a c03d
00000180: 2484 45bd af80 643c be6e a63d d83d 1fbd
00000190: 76e9 473e cc80 093d ef9c 453d cd4f 313e
000001a0: a471 ec3d 5686 743d 6466 3e3e 341a 283e
000001b0: a614 b0bc f531 a7bd ac4a 323e 50f1 043e
000001c0: 2476 c43d a5a7 29be f190 01bd e792 f5bd
000001d0: f613 763e 5e63 02be eb09 9ebd 9711 dbbd
000001e0: 4b62 2ebe 3089 70ba 3667 4d3d a590 533e
000001f0: 460a 1bbe 1dda 2f3e cc63 8bbd 83ab 20be

lstm0.weight_hh_l0 f4 [128, 32]
0.12199852 -0.14464955 0.039004706 -0.12803024 0.017542928 0.06297797 -0.06286402 0.051634688
-0.08907776 0.07301811 0.09625715 -0.17701086 0.049503077 -0.13593416 -0.11316623 0.18620786
0.020086696 -0.19391394 0.086796634 -0.044095 0.012368214 0.14202088 -0.16793461 -0.13379145
0.016389422 0.07243052 0.12548077 -0.04828802 0.17382848 -0.07687382 0.1470861 0.17529738
0.18408735 -0.119304836 -0.18274814 -0.048446883 0.16203673 -0.13246977 0.019937523 -0.0038009067
0.006210541 -0.12653494 0.043217182 -0.15366535 -0.020406546 0.028455863 0.052922007 -0.043704983
0.019706536 -0.09219278 -0.06858667 0.09157579 -0.10791204 0.059306365 -0.20034698 -0.0947182
-0.12407738 0.07183902 0.20340744 -0.124090075 0.119857065 0.056697186 -0.08356602 0.21046105
-0.06397809 -0.10182518 0.16810796 -0.050740115 0.065148406 0.13000138 0.12382521 -0.04756522
0.07202346 -0.123246506 -0.07439961 0.13977382 -0.1039185 -0.060626507 -0.047622807 -0.030977366
0.023516973 -0.13617097 -0.06906513 0.15357557 0.04267049 -0.010874326 -0.19273971 0.15608475
0.0505287 -0.11909332 0.042289928 0.037018735 0.15728144 -0.13616692 0.019636538 0.0002394995
0.14474416 -0.13050315 -0.16177207 -0.083147645 0.19808888 0.087424435 0.007812644 0.003972341
-0.17285912 0.051418185 -0.069781624 0.0365978 0.06711565 0.20090613 -0.08479282 0.14869297
-0.1965121 -0.19697678 0.10322138 -0.0722198 -0.12748441 0.065721616 -0.10337154 -0.14035577
-0.058680646 -0.10396836 -0.10164406 -0.18867046 -0.12636095 0.060100492 0.111389875 0.022181725
-0.030274117 -0.053917065 -0.06980262 0.014138386 0.1470554 -0.0426139 0.030464722 0.049807884
-0.16397883 0.014555717 -0.001679035 -0.031078586 -0.05836451 0.033668272 0.0035222683 0.17920865
0.0023676772 -0.120495215 0.051749058 0.015006818 -0.101695485 0.018925551 0.12864113 0.1528115
-0.00029858056 -0.057809107 0.044091526 0.03893903 -0.0075287484 0.15067877 -0.002151235 -0.025900148
-0.031097256 -0.1207953 -0.06770428 0.07017905 0.09777997 0.00668924 0.14209177 0.13435097
-0.09893529 -0.04565509 0.08750431 -0.059843507 -0.0024833065 -0.11063942 -0.098221324 -0.082867004
0.034788303 0.04497072 -0.0472121 -0.1504931 0.1536633 -0.051369637 -0.012770441 -0.09392491
-0.10636636 0.059418663 -0.060168892 -0.0783931 -0.058657825 -0.014754032 -0.1495204 0.17766172
0.029331537 0.13341312 0.08104138 -0.059534017 -0.12910415 0.06780033 -0.080844045 0.17912793
-0.169041 -0.10383672 -0.098353244 -0.0500956 -0.121145755 -0.14485635 0.19365507 0.11325373
0.028216073 -0.0440105 -0.13750191 0.17089589 -0.084325716 0.01891739 -0.011721852 0.17464651
0.19940624 0.1345764 0.017625624 -0.030797493 0.10292382 0.07784675 0.12418791 -0.06390827
0.0546575 -0.09168671 -0.22175023 -0.16244921 -0.16704865 -0.14053021 -0.037774142 0.08420447
0.048056252 0.13234483 0.15878867 0.06567373 -0.001246625 0.08504887 -0.12976015 0.10111736
-0.1506909 0.0052072974 0.14261562 -0.15179776 0.11344858 0.005330833 -0.04719841 -0.012852049
0.10840233 0.0014346524 -0.1467954 0.10210269 0.0030204137 -0.10641146 0.034424882 0.013690098
00000000: 5cda f93d 031f 14be 66c3 1f3d 5c1a 03be
00000010: 30b6 8f3c 98fa 803d dabe 80bd e57e 533d
00000020: 676e b6bd 858a 953d 7822 c53d 5642 35be
00000030: bdc3 4a3d 5332 0bbe b2c3 e7bd 46ad 3e3e
00000040: db8c a43c 6091 46be 6fc2 b13d f59c 34bd
00000050: 0da4 4a3c ec6d 113e 0df7 2bbe a000 09be
00000060: 1c43 863c 7456 943d 087e 003e a9c9 45bd
00000070: 1800 323e 0570 9dbd bd9d 163e 2881 333e
00000080: 6581 3c3e 1856 f4bd 5422 3bbe 3d70 46bd
00000090: f5ec 253e 28a6 07be 0454 a33c a218 79bb
000000a0: cb81 cb3b 6092 01be 8004 313d 735a 1dbe
000000b0: a12b a7bc 451c e93c bfc4 583d ff03 33bd
000000c0: 9a6f a13c 91cf bcbd 2b77 8cbd 168c bb3d
000000d0: fd00 ddbd 3beb 723d c227 4dbe 9efb c1bd
000000e0: 481c febd 5620 933d 0a4a 503e f022 febd
000000f0: 9f77 f53d 4f3b 683d a924 abbd 1a83 573e
00000100: f206 83bd b889 d0bd 7e24 2c3e ded4 4fbd
00000110: 876c 853d 151f 053e 1298 fd3d c0d3 42bd
00000120: 0981 933d aa68 fcbd d35e 98bd de20 0f3e
00000130: 39d3 d4bd 8053 78bd 2210 43bd 3fc4 fdbc
00000140: aba6 c03c 6770 0bbe 0572 8dbd ea42 1d3e
00000150: 40c7 2e3d 3b2a 32bc 8f5d 45be aed4 1f3e
00000160: 2ff7 4e3d 33e7 f3bd 3438 2d3d f5a0 173d
00000170: 630e 213e 576f 0bbe cedc a03c 2822 7b39
00000180: d037 143e 9ea2 05be 94a7 25be 5049 aabd
00000190: d0d7 4a3e 950b b33d 9b00 003c 692a 823b
000001a0: fb01 31be e09b 523d abe9 8ebd 93e7 153d
000001b0: ee73 893d 56ba 4d3e dca7 adbd f842 183e
000001c0: 783a 49be 48b4 49be bb65 d33d f9e7 93bd
000001d0: 468b 02be 0e99 863d 75b4 d3bd 6cb9 0fbe
000001e0: 1e5b 70bd 5ded d4bd c32a d0bd d432 41be
000001f0: c464 01be ef2b 763d 6020 e43d 73b6 b53c
00000200: 6d01 f8bc 24d8 5cbd adf4 8ebd b0a4 673c
00000210: b195 163e ea8b 2ebd 2791 f93c 5a03 4c3d
00000220: 11ea 27be 1a7b 6e3c 1113 dcba 8598 febc
00000230: a00f 6fbd bee7 093d dbd5 663b 7982 373e
00000240: 082b 1b3b 32c6 f6bd d2f6 533d 28df 753c
00000250: b945 d0bd c209 9b3c 80ba 033e 9e7a 1c3e
00000260: ce8a 9cb9 3ec9 6cbd 5199 343d 887e 1f3d
00000270: b8b3 f6bb 894b 1a3e bcfb 0cbb 8c2c d4bc
00000280: acbf febc 8763 f7bd 8ba8 8abd 09ba 8f3d
00000290: dd40 c83d 6a31 db3b 8180 113e 4d93 093e
000002a0: 969e cabd d500 3bbd 7635 b33d 771e 75bd
000002b0: f8be 22bb ec96 e2bd 4328 c9bd 2db6 a9bd
000002c0: 2e7e 0e3d 3833 383d 7a61 41bd dd1a 1abe
000002d0: ea59 1d3e f868 52bd 1d3b 51bc b45b c0bd
000002e0: 9bd6 d9bd fc60 733d a873 76bd 908c a0bd
000002f0: 3043 70bd e5ba 71bc e01b 19be f4ec 353e
00000300: b148 f03c 739d 083e 06f9 a53d f1d9 73bd
00000310: e133 04be e6da 8a3d 9091 a5bd 506d 373e
00000320: 1519 2dbe 59a8 d4bd 6d6d c9bd 0b31 4dbd
00000330: 441b f8bd 3955 14be 844d 463e 92f1 e73d
00000340: 6525 e73c 5b44 34bd 4dcd 0cbe 55ff 2e3e
00000350: f6b2 acbd a4f8 9a3c 030d 40bc 89d6 323e
00000360: 2631 4c3e 65ce 093e 9d63 903c 064b fcbc
00000370: b9c9 d23d 1e6e 9f3d 3b56 fe3d 57e2 82bd
00000380: 8be0 5f3d 3ec6 bbbd 7e12 63be 1659 26be
00000390: cd0e 2bbe 27e7 0fbe 0fb9 1abd 6573 ac3d
000003a0: a2d6 443d 6785 073e 7f99 223e f37f 863d
000003b0: cb65 a3ba 1a2e ae3d d8df 04be 9e16 cf3d
000003c0: b74e 1abe faa1 aa3b d409 123e df70 1bbe
000003d0: bb57 e83d 45ae ae3b 1f53 41bd 6791 52bc
000003e0: 0a02 de3d f20a bc3a 8951 16be 371b d13d
000003f0: 22f2 453b 40ee d9bd 1b01 0d3d 6f4c 603c

lstm0.bias_ih_l0 f4 [128]
-0.018757626 0.062487055 0.19074067 0.17868295 -0.117937796 -0.018887803 0.10217832 0.0054480126
0.07463789 -0.24512085 -0.1458602 0.022885501 -0.17898521 0.0021538706 0.050843608 0.082264476
0.056272876 -0.091395184 -0.14131029 0.11857298 0.046387147 0.07788529 0.07613734 0.03580294
0.16389388 0.036434732 -0.12291644 -0.012031288 -0.07025019 -0.06817567 0.028464146 0.09924292
0.06149985 0.10599152 -0.004189541 0.043933325 -0.0030814507 0.08055579 -0.011382241 0.038823362
-0.02383051 0.038453694 -0.12695017 -0.110280804 -0.16485567 0.117136635 -0.018302606 -0.17329517
0.112924434 -0.114601776 -0.026344564 -0.10963888 0.14480501 0.17714645 0.02540624 0.014579748
0.109994516 -0.15722498 0.16845532 -0.024957402 0.015488248 0.025451269 0.0028063045 -0.1125578
0.08429869 0.058159065 0.06439654 0.17551646 0.08312192 0.0254588 0.034690626 0.0740381
-0.01366562 0.051727027 0.018600857 -0.12694605 0.031142214 0.08300625 0.058130953 -0.0032786534
-0.15248078 0.11576231 -0.023302829 0.0834242 0.07165768 -0.11507646 -0.083409525 -0.06669768
-0.039683886 -0.09232678 0.11567542 -0.1308386 0.11539288 -0.051020253 0.16078773 0.1176266
0.006839307 0.013233541 0.23979707 -0.11630571 -0.15520732 -0.10855381 0.08030178 0.029321497
-0.05679017 -0.21452475 -0.055969693 -0.09872798 -0.09362913 0.04750563 -0.0742753 -0.19301818
0.15346576 0.0049842633 0.12486987 -0.015133062 -0.009088592 0.14772236 0.003822668 -0.016198713
0.046406627 0.116955526 -0.032933023 0.13122964 -0.14372087 0.1802845 0.08872124 -0.04129017
00000000: 98a9 99bc 6df2 7f3d 8651 433e aaf8 363e
00000010: 5f89 f1bd 98ba 9abc de42 d13d 3e85 b23b
00000020: c0db 983d f600 7bbe 605c 15be 607a bb3c
00000030: e647 37be f427 0d3b 6341 503d 477a a83d
00000040: 637e 663d 662d bbbd a5b3 10be 64d6 f23d
00000050: 7300 3e3d 5382 9f3d e5ed 9b3d 1ba6 123d
00000060: ccd3 273e 963c 153d 9dbb fbbd e11e 45bc
00000070: 55df 8fbd b09f 8bbd a42d e93c df3f cb3d
00000080: 44e7 7b3d 1512 d93d 6b48 89bb 6ef3 333d
00000090: 2af2 49bb 6ffa a43d 947c 3abc 3f05 1f3d
000000a0: 3438 c3bc 9f81 1d3d 3aff 01be e7da e1bd
000000b0: edcf 28be 55e5 ef3d 59ef 95bc 4a74 31be
000000c0: ed44 e73d 56b4 eabd 8ed0 d7bc 598a e0bd
000000d0: c447 143e e165 353e bf20 d03c e5df 6e3c
000000e0: ce44 e13d 96ff 20be 8d7f 2c3e 7773 ccbc
000000f0: 6cc2 7d3c 2e7f d03c fae9 373b b484 e6bd
00000100: cba4 ac3d 3338 6e3d 55e2 833d 96ba 333e
00000110: d33b aa3d f98e d03c c217 0e3d 4aa1 973d
00000120: c4e5 5fbc b8df 533d d360 983c 25fe 01be
00000130: f51d ff3c 2eff a93d b91a 6e3d adde 56bb
00000140: ec23 1cbe ca14 ed3d 93e5 bebc 4fda aa3d
00000150: 43c1 923d 35ad ebbd 9dd2 aabd cb98 88bd
00000160: 928b 22bd d315 bdbd 3ce7 ec3d 8efa 05be
00000170: 1a53 ec3d 9dfa 50bd 8aa5 243e 37e6 f03d
00000180: 441c e03b 7ed1 583c 5d8d 753e b031 eebd
00000190: abee 1ebe 7651 debd 4275 a43d a333 f03c
000001a0: cf9c 68bd 60ac 5bbe 7a40 65bd e531 cabd
000001b0: a1c0 bfbd 4395 423d a61d 98bd 8fa6 45be
000001c0: 2126 1d3e 0853 a33b c6bb ff3d aaf0 77bc
000001d0: 51e8 14bc 8844 173e ba85 7a3b 2ab3 84bc
000001e0: e014 3e3d 6186 ef3d c7e4 06bd 1061 063e
000001f0: 902b 13be 809c 383e 7bb3 b53d e21f 29bd

lstm0.bias_hh_l0 f4 [128]
-0.078569494 -0.14647076 0.1044752 -0.11397179 -0.03442751 -0.0013106298 0.10240035 0.006434093
-0.13357714 -0.20549062 -0.023952354 0.040033698 -0.13388254 0.13847423 0.03327061 -0.0316981
-0.1427423 -0.10069701 0.11426244 0.09726827 0.16631936 0.112093754 -0.17523941 -0.12191762
0.026430763 0.02714523 0.02780373 -0.058697365 -0.029675977 0.040776357 0.09171879 -0.14355476
-0.044166204 0.14926283 -0.08205613 0.07358039 0.01844801 0.028208194 0.13911441 0.14182432
0.17425343 -0.03187835 0.035325393 0.017059969 -0.120146364 0.11096508 0.14224517 -0.13952695
-0.047334515 -0.05517457 0.10364696 0.08370487 0.03363585 0.011756924 -0.08743972 0.13820405
0.079628475 0.06214734 0.083931945 -0.024821026 0.138771 0.0894338 0.121926464 0.14181949
0.03776315 0.13173403 0.13310826 0.05843874 0.07754188 0.08102328 -0.03954966 -0.033054844
-0.01606436 0.037387818 0.008712547 0.040972933 0.06486343 0.036459293 0.11699273 -0.025250103
0.072652124 -0.10180379 -0.0009253791 -0.103139125 -0.20571104 -0.123349115 -0.053643942 0.09522016
0.10853521 0.0794245 -0.15754586 -0.045500718 0.03380263 -0.043308686 -0.056830313 0.051046956
0.13485011 0.14043555 0.14205019 -0.12805252 -0.12008443 0.09822381 0.00036038755 -0.10203143
0.014562774 0.08887534 -0.04446456 -0.119754106 0.08480763 -0.03371487 -0.028272115 -0.16833828
-0.012431034 -0.06720451 0.1393625 -0.13661586 -0.08895504 0.04468518 0.16484062 0.10489044
-0.08081509 -0.080855206 -0.17219988 0.058216296 -0.15401508 0.031695895 0.14815891 -0.12619019
00000000: 0be9 a0bd 6efc 15be 18f7 d53d 0b6a e9bd
00000010: dc03 0dbd 70c9 abba 46b7 d13d 16d5 d23b
00000020: 72c8 08be 226c 52be ba37 c4bc 60fa 233d
00000030: 8118 09be 30cc 0d3e c346 083d ded5 01bd
00000040: 0a2b 12be 3c3a cebd 6d02 ea3d 9634 c73d
00000050: 9f4f 2a3e 6991 e53d f671 33be f2af f9bd
00000060: 5485 d83c ac5f de3c a6c4 e33c a66c 70bd
00000070: 091b f3bc 1c05 273d 10d7 bb3d 0500 13be
00000080: 9fe7 34bd 5bd8 183e 0b0d a8bd 51b1 963d
00000090: 4820 973c df14 e73c 0274 0e3e 653a 113e
000000a0: 7e6f 323e df92 02bd 5cb1 103d 59c1 8b3c
000000b0: 4c0f f6bd a941 e33d b8a8 113e 27e0 0ebe
000000c0: d6e1 41bd bbfe 61bd db44 d43d 756d ab3d
000000d0: bfc5 093d 1da0 403c 9913 b3bd 5d85 0d3e
000000e0: 4114 a33d 368e 7e3d 83e4 ab3d 7755 cbbc
000000f0: fc19 0e3e 1129 b73d 95b4 f93d 2139 113e
00000100: 88ad 1a3d 49e5 063e 884d 083e 765d 6f3d
00000110: 47ce 9e3d 89ef a53d d3fe 21bd 8464 07bd
00000120: 6899 83bc f823 193d 12bf 0e3c 3cd3 273d
00000130: 1ed7 843d 5756 153d e299 ef3d 4ed9 cebc
00000140: a3ca 943d 817e d0bd 2495 72ba 9b3a d3bd
00000150: eaa5 52be 769e fcbd c0b9 5bbd ca02 c33d
00000160: b547 de3d 50a9 a23d b453 21be f65e 3abd
00000170: a074 0a3d 7364 31bd e7c6 68bd 9d16 513d
00000180: 2616 0a3e 56ce 0f3e 9b75 113e 3320 03be
00000190: d3ee f5bd 9129 c93d 66f2 bc39 dbf5 d0bd
000001a0: b498 6e3c 4604 b63d 7820 36bd a441 f5bd
000001b0: 9faf ad3d 9b18 0abd ec9a e7bc df60 2cbe
000001c0: 89ab 4bbc 85a2 89bd 0bb5 0e3e 07e5 0bbe
000001d0: 0f2e b6bd cf07 373d fbcb 283e cdd0 d63d
000001e0: 6282 a5bd 6a97 a5bd 2a55 30be 3674 6e3d
000001f0: 21b6 1dbe 8ed3 013d f8b6 173e 0038 01be

lstm1.weight_ih_l0 f4 [256, 32]
-0.07523906 0.025713421 0.07640334 -0.08788757 0.005019629 -0.047553256 -0.047983006 0.050303306
-0.098940365 -0.11662927 -0.11329712 -0.11683991 0.057860218 0.109256506 0.040577643 -0.07289091
-0.11356684 -0.030019844 -0.07799893 -0.085827805 -0.005386955 -0.09057115 -0.0051422664 0.09940644
0.09129028 -0.07743144 0.09189282 0.007668205 -0.09494711 -0.07269613 -0.08012183 0.13057911
-0.09813949 -0.068270616 -0.1395685 -0.103523426 0.04764088 -0.09972324 -0.025742566 0.07588692
-0.08640899 0.11620471 -0.120883524 -0.114613965 -0.059251476 0.10576059 0.06661245 0.14963757
-0.11192896 -0.009884694 -0.09081391 -0.09101476 -0.047144454 0.08373752 -0.100734636 0.090656154
-0.11747781 -0.08236157 -0.04836773 -0.027804673 0.095744036 0.10251256 -0.028187772 -0.093033366
0.056106362 0.058428284 -0.0312516 0.10666307 0.048190806 -0.011958084 -0.077266395 0.13496423
-0.07264662 0.09367136 -0.03047836 -0.03942871 0.12337984 -0.036619995 -0.002612019 -0.12359854
0.08447577 -0.048784368 -0.067616455 -0.09225399 -0.054534394 0.015683597 -0.07268173 0.0005267571
0.06829377 -0.09528683 -0.041827377 -0.027078686 0.0604728 -0.047773063 -0.015730646 0.13174275
0.033525493 0.034314007 0.0781199 0.051539116 -0.0690079 0.11744559 -0.019168124 -0.011955925
-0.09466738 -0.06913075 0.06204582 0.008461543 0.05217333 -0.023884412 -0.06371337 -0.064563505
-0.08020196 -0.057680994 -0.0669177 -0.034150634 0.09683468 -0.13637106 -0.07531278 0.017634245
0.102456376 -0.11677362 -0.09093511 -0.012688677 0.084446415 0.04134128 -0.12790202 0.027418882
0.102778986 0.026309848 -0.099289805 0.1443605 -0.023476738 0.027972504 0.114096604 -0.028510822
-0.055660985 -0.0778586 0.10677912 0.042264514 0.07210775 0.06491868 0.03895156 -0.1063366
0.013625986 -0.023316719 0.06719224 0.015264024 0.07900115 -0.073130384 -0.0038040187 -0.04506981
-0.051172145 0.025929805 -0.03517019 -0.1247322 0.026410425 0.0651754 0.116840154 0.03847234
-0.12274079 0.121305406 -0.07895981 -0.00679148 0.0680916 0.117467254 -0.055619933 0.049454797
0.041033827 -0.032030124 -0.0020792505 0.028230332 -0.11698501 0.11696534 -0.00828154 0.04865009
0.10125799 -0.11275143 -0.08485119 0.09922558 0.056979246 0.043600928 0.0487553 0.06254647
-0.11456269 -0.078544244 0.11297071 0.09192273 0.114414364 -0.0945859 0.0062819063 -0.013240943
-0.07130788 0.001144517 -0.058926355 0.07674047 -0.07915937 0.07418865 0.030314438 0.018557535
-0.113582365 0.052167684 0.10836559 -0.073382854 -0.012716962 -0.09511662 -0.015482955 -0.1364358
0.0502227 -0.028389001 -0.08140174 0.035060406 0.051231477 -0.10870601 0.0759644 -0.108642265
0.10714821 0.06579951 0.112665355 -0.087372944 0.11703099 0.07179694 -0.016738774 0.13259663
0.07872756 0.047922876 -0.0976072 0.0794222 0.068749465 -0.08828333 -0.058804054 -0.09910173
0.10533899 0.05639569 0.10230313 -0.018932708 -0.107141815 0.119309045 -0.054700587 0.06994734
-0.13823326 0.03887327 -0.009748183 -0.004748358 -0.022551512 -0.12103049 0.0533796 0.010207363
0.050973706 0.044813614 0.07149393 0.011946396 0.13093776 0.09473041 -0.05665837 -0.04275919
00000000: f016 9abd f4a4 d23c 5b79 9c3d 66fe b3bd
00000010: b37b a43b 34c7 42bd d489 44bd d70a 4e3d
00000020: 3fa1 cabd 54db eebd 5208 e8bd c349 efbd
00000030: d6fe 6c3d e0c1 df3d be34 263d d447 95bd
00000040: bb95 e8bd 2dec f5bc e7bd 9fbd 7dc6 afbd
00000050: 0e85 b0bb 5e7d b9bd 7580 a8bb 9b95 cb3d
00000060: 66f6 ba3d 6094 9ebd 4e32 bc3d 9145 fb3b
00000070: a173 c2bd b5e1 94bd ea16 a4bd 88b6 053e
00000080: 5bfd c8bd 77d1 8bbd 0beb 0ebe 1704 d4bd
00000090: 1523 433d b33b ccbd 13e2 d2bc 9a6a 9b3d
000000a0: 32f7 b0bd bcfc ed3d c891 f7bd baba eabd
000000b0: adb1 72bd 0299 d83d 1c6c 883d 973a 193e
000000c0: 033b e5bd 69f3 21bc a5fc b9bd f265 babd
000000d0: 8b1a 41bd 947e ab3d f64d cebd efa9 b93d
000000e0: 3598 f0bd 2fad a8bd 3e1d 46bd a0c6 e3bc
000000f0: 7315 c43d 1bf2 d13d 0bea e6bc 4788 bebd
00000100: c9cf 653d 7f52 6f3d ad01 00bd 2b72 da3d
00000110: b963 453d d7eb 43bc d83d 9ebd 1034 0a3e
00000120: c0c7 94bd c5d6 bf3d c1ad f9bc 0080 21bd
00000130: 92ae fc3d d9fe 15bd 682e 2bbb 3b21 fdbd
00000140: a201 ad3d 1ed2 47bd 7f7a 8abd a9ef bcbd
00000150: 755f 5fbd e37a 803c 29da 94bd 1216 0a3a
00000160: 9bdd 8b3d be25 c3bd 2f53 2bbd 1fd4 ddbc
00000170: 54b2 773d b0ad 43bd 8edd 80bc 92e7 063e
00000180: 0752 093d d88c 0c3d 53fd 9f3d ae1a 533d
00000190: 0454 8dbd 5087 f03d 7806 9dbc c9e2 43bc
000001a0: f9e0 c1bd 6c94 8dbd c223 7e3d 49a2 0a3c
000001b0: b4b3 553d 3ea9 c3bc 287c 82bd df39 84bd
000001c0: ed40 a4bd e842 6cbd 260c 89bd 89e1 0bbd
000001d0: 4351 c63d dba4 0bbe 963d 9abd b175 903c
000001e0: a6d4 d13d 0227 efbd 303c babd 2be4 4fbc
000001f0: 3ef2 ac3d 7955 293d bff8 02be 909d e03c
00000200: ca7d d23d c087 d73c 7458 cbbd 3dd3 133e
00000210: 4a52 c0bc 9826 e53c 7bab e93d 878f e9bc
00000220: c6fc 63bd 5474 9fbd 03af da3d 8e1d 2d3d
00000230: 3aad 933d 16f4 843d ac8b 1f3d 01c7 d9bd
00000240: 873f 5f3c b402 bfbc 169c 893d f515 7a3c
00000250: 5bcb a13d 62c5 95bd d84c 79bb 1f9b 38bd
00000260: e299 51bd be6a d43c 9e0e 10bd 9873 ffbd
00000270: ad5a d83c ae7a 853d e449 ef3d 2c95 1d3d
00000280: 865f fbbd f86e f83d aeb5 a1bd 108b debb
00000290: 9c73 8b3d ac92 f03d bad1 63bd 1d91 4a3d
000002a0: 1613 283d 0532 03bd 0944 08bb 4c43 e73c
000002b0: d695 efbd 868b ef3d 4caf 07bc 5145 473d
000002c0: 5960 cf3d 39ea e6bd 76c6 adbd c836 cb3d
000002d0: 1263 693d e396 323d a3b3 473d 5d18 803d
000002e0: d89f eabd cedb a0bd 305d e73d fc41 bc3d
000002f0: 1452 ea3d 41b6 c1bd 73d8 cd3b 8af0 58bc
00000300: de09 92bd 9e03 963a c35c 71bd 1c2a 9d3d
00000310: 4f1e a2bd 38f0 973d fc55 f83c f905 983c
00000320: df9d e8bd c8ad 553d c7ee dd3d c049 96bd
00000330: ce5a 50bc 81cc c2bd 38ac 7dbc d4b5 0bbe
00000340: 51b6 4d3d 0d90 e8bc f5b5 a6bd 809b 0f3d
00000350: 19d8 513d 42a1 debd 3993 9b3d d67f debd
00000360: 8570 db3d e5c1 863d 18bd e63d 96f0 b2bd
00000370: f2ad ef3d 460a 933d c11f 89bc 69c7 073e
00000380: ea3b a13d c74a 443d 49e6 c7bd 1ba8 a23d
00000390: 85cc 8c3d e4cd b4bd 85dc 70bd d9f5 cabd
000003a0: f8bb d73d 2bff 663d 4e84 d13d c418 9bbc
000003b0: 2b6d dbbd 4d58 f43d b90d 60bd 8d40 8f3d
000003c0: 058d 0dbe 9439 1f3d d8b6 1fbc 1d98 9bbb
000003d0: f3bd b8bc d5de f7bd 91a4 5a3d c93c 273c
000003e0: cec9 503d 7b8e 373d 696b 923d d1ba 433c
000003f0: 8c14 063e 0402 c23d 9b12 68bd 4324 2fbd

lstm1.weight_hh_l0 f4 [256, 64]
-0.12846518 0.08839704 0.06268255 0.06560556 0.15623754 -0.052321132 0.14059567 0.13266793
0.08629677 -0.0221222 -0.01271737 -0.07287356 -0.04096764 -0.010127312 0.020850638 -0.012804487
0.08945821 -0.019378042 0.049628384 0.021061968 -0.0794558 -0.10729481 -0.074996114 -0.051203355
-0.12180759 0.11579119 -0.0072012525 -0.11362271 0.078066275 0.040126238 0.031097028 0.0045374404
-0.03211928 -0.037117656 0.032575104 -0.105123565 -0.050519835 -0.01260884 -0.07811693 0.05627652
-0.043686986 -0.0476872 0.046328813 0.0032583238 -0.101218894 0.07491988 0.043820288 0.12617907
0.1504611 0.13647324 0.00919009 -0.052063573 0.050073516 0.11027231 0.07180384 -0.06441974
-0.048176534 0.011598669 0.0059783896 -0.03515812 -0.044468325 -0.13226356 0.1530518 0.039840132
0.12852605 0.117758624 0.033232108 0.049835093 -0.05225189 -0.065789886 -0.04418793 0.017118404
0.13666745 -0.110489145 -0.1025872 -0.07865615 0.050526842 0.04837777 -0.08547433 0.041184228
-0.050071225 -0.11676453 -0.040815387 -0.078654096 -0.03509364 0.029109366 0.050483882 0.1253332
0.08651008 -0.012984796 0.020017112 0.040085625 -0.014277122 0.008530243 0.011382398 -0.052994993
0.11584161 -0.0415823 -0.098690785 0.018883195 -0.09685599 0.021172997 0.10084183 -0.041895326
0.043486405 -0.129835 0.02193993 -0.018199958 -0.10127426 -0.04519708 0.12235621 0.103294596
-0.024144568 -0.034816455 -0.12023761 -0.03395805 -0.10743201 -0.10556866 -0.09085606 -0.019504258
-0.113221265 0.054926634 -0.06369161 0.094608724 0.011717332 0.049356364 -0.028906036 0.004672829
-0.10969978 -0.13285123 0.090152234 -0.05706361 0.045071658 0.09472732 0.0037451687 -0.05697658
0.08266673 0.057742495 0.041714672 -0.06447582 -0.0465362 -0.114207 -0.083271146 -0.051510025
-0.05624694 0.0024086214 -0.10046274 0.006836341 -0.13818836 -0.106339045 -0.07547482 -0.12524481
0.015487534 -0.057693545 0.112552315 -0.078452095 0.107411474 0.051029406 0.028069299 0.0026860368
0.1573082 0.0389359 -0.08426151 -0.099716544 0.08699628 -0.060630552 -0.036575127 -0.0049178014
-0.026877986 -0.0928772 -0.04695242 0.043691285 -0.050964918 0.12650384 -0.10545956 -0.006044232
-0.019167531 -0.10589474 -0.06942264 -0.032312393 0.04159247 0.12407093 -0.055462655 -0.116257526
0.012201752 -0.0112558985 0.01596709 0.028794017 0.008718231 -0.12643854 0.07143859 0.017265387
0.067159854 0.05637027 -0.059414074 0.015784541 0.11697443 -0.012608358 0.023861773 0.039389078
-0.03859664 0.03392504 0.06927314 -0.0005382685 0.031919315 -0.0010488551 0.027768904 -0.006487659
-0.10395952 -0.012371087 0.093689874 -0.0042876257 0.057828564 0.025235886 -0.14591748 0.05524548
-0.12727287 -0.06531635 0.08927146 -0.03603814 0.047772735 0.13756852 -0.04170018 -0.002650412
0.09138032 0.08006431 0.11562984 -0.013700344 0.15229112 0.014025533 -0.057613675 -0.044626527
-0.07310788 0.03895519 -0.0056385514 -0.021820297 -0.11976145 0.12492698 -0.05037995 0.057930965
-0.017345563 0.0779635 -0.0495793 -0.06398105 -0.046662938 0.083851516 -0.033747435 0.0884637
-0.05186455 0.09350199 0.066671155 -0.13511957 -0.024338536 -0.034000944 0.045866463 -0.11563996
00000000: 608c 03be 8209 b53d b55f 803d 355c 863d
00000010: bcfc 1f3e af4e 56bd 50f8 0f3e 1ada 073e
00000020: 5cbc b03d 9e39 b5bc 845c 50bc bc3e 95bd
00000030: afcd 27bd 06ed 25bc f5ce aa3c e9c9 51bc
00000040: de35 b73d b3be 9ebc 2247 4b3d 268a ac3c
00000050: b9b9 a2bd 62bd dbbd 9097 99bd 9cba 51bd
00000060: 4276 f9bd ee23 ed3d 7cf8 ebbb 06b3 e8bd
00000070: 36e1 9f3d 695b 243d 32bf fe3c cfae 943b
00000080: 828f 03bd af08 18bd 796d 053d 064b d7bd
00000090: e3ed 4ebd 4f95 4ebc c5fb 9fbd 3582 663d
000000a0: 20f1 32bd a753 43bd 48c3 3d3d 9a89 553b
000000b0: da4b cfbd 986f 993d e77c 333d 1635 013e
000000c0: 7912 1a3e a4bf 0b3e 0892 163c 9d40 55bd
000000d0: e319 4d3d 73d6 e13d e40d 933d 7fee 83bd
000000e0: c254 45bd 5808 3e3c 5ee6 c33b f601 10bd
000000f0: 6b24 36bd 1970 07be 9cb9 1c3e 682f 233d
00000100: 559c 033e 6f2b f13d 641e 083d e21f 4c3d
00000110: 1406 56bd d9bc 86bd 67fe 34bd e53b 8c3c
00000120: 8df2 0b3e 2248 e2bd 3d19 d2bd 7a16 a1bd
00000130: 3cf5 4e3d c527 463d 2a0d afbd cbb0 283d
00000140: 7c17 4dbd 3e22 efbd 092e 27bd 6615 a1bd
00000150: 59be 0fbd c476 ee3c 30c8 4e3d 5957 003e
00000160: 322c b13d 2fbe 54bc edfa a33c d330 243d
00000170: 97ea 69bc 6fc2 0b3c 3d7d 3a3c 4711 59bd
00000180: 5e3e ed3d 3452 2abd 651e cabd eeb0 9a3c
00000190: 6f5c c6bd fe72 ad3c 2986 ce3d 6f9a 2bbd
000001a0: cd1e 323d 77f3 04be 5ebb b33c 1418 95bc
000001b0: e168 cfbd 9320 39bd e595 fa3d 1e8c d33d
000001c0: d4ca c5bc b39b 0ebd 233f f6bd 9917 0bbd
000001d0: 5005 dcbd 6234 d8bd be12 babd 65c7 9fbc
000001e0: 8de0 e7bd c0fa 603d bf70 82bd 38c2 c13d
000001f0: 0dfa 3f3c e629 4a3d 5acc ecbc 881e 993b
00000200: 47aa e0bd 270a 08be bca1 b83d 88bb 69bd
00000210: 0f9d 383d 6600 c23d 8171 753b 4660 69bd
00000220: 2d4d a93d 6583 6c3d 01dd 2a3d e60b 84bd
00000230: be9c 3ebd 5ce5 e9bd 108a aabd 2dfc 52bd
00000240: 3163 66bd f6d9 1d3b 69bf cdbd 6303 e03b
00000250: 4081 0dbe 49c8 d9bd 8b92 9abd 2d40 00be
00000260: 6dbf 7d3c 1150 6cbd d481 e63d 7eab a0bd
00000270: 8cfa db3d 3604 513d 96f1 e53c 3808 303b
00000280: 6715 213e 407b 1f3d 4c91 acbd 3038 ccbd
00000290: 1b2b b23d be57 78bd cdcf 15bd 8225 a1bb
000002a0: 392f dcbc 6736 bebd 2e51 40bd a2f5 323d
000002b0: 97c0 50bd 398a 013e 2ffb d7bd b10e c6bb
000002c0: 3a05 9dbc 57df d8bd 752d 8ebd 005a 04bd
000002d0: de5c 2a3d e618 fe3d cf2c 63bd 6d18 eebd
000002e0: dbe9 473c a96a 38bc 6acd 823c 6ee1 eb3c
000002f0: e9d6 0e3c 1b79 01be 654e 923d 2470 8d3c
00000300: 1b8b 893d 83e4 663d 2c5c 73bd 954e 813c
00000310: 4a90 ef3d 4993 4ebc c479 c33c 7156 213d
00000320: 8317 1ebd fcf4 0a3d 13df 8d3d 961a 0dba
00000330: d4bd 023d bd79 89ba 9d7b e33c 6e96 d4bb
00000340: bbe8 d4bd 1ab0 4abc 7ae0 bf3d 367f 8cbb
00000350: a5dd 6c3d 7dbb ce3c 646b 15be 1649 623d
00000360: d253 02be 94c4 85bd f5d3 b63d bb9c 13bd
00000370: 58ad 433d c3de 0c3e cfcd 2abd 89b2 2dbb
00000380: 9b25 bb3d c2f8 a33d 56cf ec3d 6877 60bc
00000390: 34f2 1b3e 59cb 653c 51fc 6bbd 4eca 36bd
000003a0: 96b9 95bd 7a8f 1f3d 99c3 b8bb 7bc0 b2bc
000003b0: 7e45 f5bd b7d9 ff3d 355b 4ebd 0549 6d3d
000003c0: 4818 8ebc 54ab 9f3d aa13 4bbd 7f08 83bd
000003d0: a321 3fbd 58ba ab3d c03a 0abd 752c b53d
000003e0: ec6f 54bd f97d bf3d e38a 883d c95c 0abe
000003f0: 9c61 c7bc 9344 0bbd 79de 3b3d a5d4 ecbd

lstm1.bias_ih_l0 f4 [256]
-0.029680021 -0.072739206 -0.018852158 0.08353964 0.082583584 0.09167046 -0.096349545 0.0036896497
-0.1426192 -0.017398834 0.005007608 -0.054464456 -0.13199222 0.051429506 0.10816871 0.12562986
0.033652924 -0.06619709 -0.016560923 0.06462309 -0.023964154 -0.027307505 -0.09524712 -0.120402135
-0.055463217 -0.12655762 -0.055068556 -0.11099574 0.12214242 -0.03620808 0.08754802 -0.06670071
0.06589842 -0.0010976519 -0.063559845 -0.11417503 -0.06950068 -0.05536233 0.08252672 -0.028164066
-0.06291015 -0.09416461 -0.024861109 -0.05534777 -0.095029585 -0.05035005 0.044568017 0.016094849
-0.13625202 0.09701291 -0.008813638 0.02356003 -0.10852419 0.0710829 -0.019650662 -0.0044113663
-0.022185218 0.11158959 -0.07427767 -0.034686718 0.017701376 0.052838493 -0.09629666 0.08507435
-0.09181776 0.046684988 0.1428251 0.06174949 0.021820793 0.087484814 -0.09131851 0.058467746
-0.018186955 -0.06392644 0.0008665771 0.12607934 0.028484369 -0.054847773 0.13427956 -0.0036010265
0.031831987 0.114259675 0.14175487 -0.054573096 -0.040925793 -0.05834472 0.06321207 -0.0011266738
0.1132743 -0.06705316 0.037460074 -0.010753159 0.11222103 -0.03316678 0.12968026 0.064560905
-0.009910487 0.110009335 -0.05035051 0.018445538 0.101105876 0.01723523 -0.09621436 0.012247416
0.012911782 0.10469901 -0.070116505 0.016516546 0.13251625 0.011567576 -0.036684703 -0.011977319
-0.0022951595 0.09243031 0.009894668 0.14112331 -0.09320689 -0.108133346 -0.08495218 0.14805283
-0.033580016 0.053826395 0.09979215 0.10772889 -0.08545669 -0.07889479 -0.03375283 0.05718206
-0.08730549 -0.0800931 -0.0011467801 -0.06649379 0.07813724 0.06511594 0.08183265 0.057382446
-0.018937346 -0.10815894 -0.041497823 0.029673746 0.069809094 -0.04303445 -0.028411534 -0.084727906
-0.088095106 0.061201964 -0.11759148 -0.026197165 0.0217543 -0.022527777 0.1267839 0.060797743
0.018530857 -0.021353457 -0.081772044 0.058689967 -0.015099453 -0.012183804 0.098129176 -0.094532356
0.047104128 -0.07096169 0.05993381 -0.08434029 -0.05582139 0.0812697 -0.095033236 0.05330657
0.07608693 -0.031742007 0.077962205 -0.013680868 -0.047431517 0.082065016 0.0692164 0.030852996
-0.0068352176 0.007384847 -0.047206517 0.03751963 0.012788508 0.033037532 -0.009451316 -0.075634554
0.039455093 0.09504244 -0.008595554 -0.012597183 0.15655807 0.030335398 -0.051951196 -0.11845086
0.09437208 -0.0668256 -0.06420374 -0.05713495 0.09794269 0.08306908 -0.05068573 -0.09444964
-0.009397086 -0.0047773463 -0.041655395 0.03167138 0.00688393 -0.047452684 0.032682713 0.09917768
0.009802139 0.0026993065 0.07128593 0.067210965 -0.00056030636 0.07455686 0.03575565 0.0041644755
0.07859858 0.0108417515 -0.040661354 -0.012867042 0.06027526 0.12598515 0.03087139 0.052187406
0.14571011 0.11529387 0.057318695 -0.060000915 -0.06234112 -0.056332305 -0.036638077 0.08945869
0.006620401 -0.1641005 -0.11271235 -0.059702802 0.02016335 -0.0412009 -0.08983153 0.02935511
-0.12472849 0.04420802 -0.078908876 -0.024233667 -0.04133731 -0.0664397 -0.10861808 0.099251024
-0.117186725 0.057660975 -0.0063252808 0.110532954 -0.052225556 -0.09528506 0.016971633 0.016157493
00000000: 8423 f3bc 4bf8 94bd d76f 9abc d516 ab3d
00000010: 9521 a93d b9bd bb3d e952 c5bd 0dce 713b
00000020: c40a 12be 0088 8ebc dc16 a43b 1f16 5fbd
00000030: f828 07be bfa7 523d 8e87 dd3d 1da5 003e
00000040: a6d7 093d 5792 87bd c6aa 87bc 1c59 843d
00000050: 7950 c4bc fdb3 dfbc ec10 c3bd 6595 f6bd
00000060: 662d 63bd 5298 01be 918f 61bd bc51 e3bd
00000070: ce25 fa3d ec4e 14bd 604c b33d 629a 88bd
00000080: c0f5 863d 16df 8fba aa2b 82bd 99d4 e9bd
00000090: 5f56 8ebd 9cc3 62bd c503 a93d 54b8 e6bc
000000a0: 09d7 80bd 60d9 c0bd 86a9 cbbc 58b4 62bd
000000b0: df9e c2bd db3b 4ebd f48c 363d 58d9 833c
000000c0: a685 0bbe b4ae c63d 1467 10bc f700 c13c
000000d0: ee41 debd e993 913d 6dfa a0bc 398d 90bb
000000e0: c6bd b5bc 1589 e43d e41e 98bd a913 0ebd
000000f0: 7a02 913c 2d6d 583d 2f37 c5bd 763b ae3d
00000100: f30a bcbd c238 3f3d be40 123e 09ed 7c3d
00000110: 85c1 b23c 3d2b b33d 3305 bbbd e07b 6f3d
00000120: cffc 94bc deeb 82bd 012b 633a f11a 013e
00000130: 0d58 e93c 0fa8 60bd 9580 093e 33ff 6bbb
00000140: 4262 023d fa00 ea3d 3028 113e 0a88 5fbd
00000150: cea1 27bd e0fa 6ebd 5475 813d e6ac 93ba
00000160: 5bfc e73d 2b53 89bd bc6f 193d 052e 30bc
00000170: 24d4 e53d e4d9 07bd e7ca 043e 8238 843d
00000180: 985f 22bc 934c e13d 563c 4ebd 191b 973c
00000190: 9910 cf3d e630 8d3c 090c c5bd 63a9 483c
000001a0: f08b 533c 6f6c d63d 3e99 8fbd b54d 873c
000001b0: 57b2 073e ee85 3d3c b342 16bd 843c 44bc
000001c0: 636a 16bb 1a4c bd3d 3f1d 223c a182 103e
000001d0: 41e3 bebd 0475 ddbd 69fb adbd 299b 173e
000001e0: 338b 09bd 1179 5c3d d45f cc3d f7a0 dc3d
000001f0: eb03 afbd 9793 a1bd 6840 0abd bc37 6a3d
00000200: 39cd b2bd da07 a4bd 8e4f 96ba e52d 88bd
00000210: 6b06 a03d 825b 853d e097 a73d db09 6b3d
00000220: 7e22 9bbc 6f82 ddbd 9ff9 29bd 5b16 f33c
00000230: 12f8 8e3d e444 30bd 4ebf e8bc d385 adbd
00000240: 356b b4bd e9ae 7a3d cdd3 f0bd 709b d6bc
00000250: 1336 b23c 2c8c b8bc a4d3 013e 0e07 793d
00000260: 06ce 973c 72ed aebc 1a78 a7bd e464 703d
00000270: b263 77bc 949e 47bc f3f7 c83d 2e9a c1bd
00000280: 42f0 403d 5d54 91bd 287d 753d 9aba acbd
00000290: f8a4 64bd ba70 a63d c9a0 c2bd fd57 5a3d
000002a0: 77d3 9b3d e803 02bd a6aa 9f3d b825 60bc
000002b0: 8d47 42bd b411 a83d 54c1 8d3d 6cbf fc3c
000002c0: f6f9 dfbb 96fc f13b 9f5b 41bd 2fae 193d
000002d0: e486 513c 5d52 073d b1d9 1abc 4ae6 9abd
000002e0: aa9b 213d 9ca5 c23d 5ed4 0cbc 6a64 4ebc
000002f0: c250 203e f181 f83c c7ca 54bd 5d96 f2bd
00000300: 2646 c13d dcdb 88bd 407d 83bd 5606 6abd
00000310: 2d96 c83d 1f20 aa3d d79b 4fbd d06e c1bd
00000320: 3cf6 19bc 498b 9cbb d99e 2abd d9b9 013d
00000330: 9792 e13b bf5d 42bd 4fde 053d ab1d cb3d
00000340: 2799 203c d9e6 303b 5cfe 913d e7a5 893d
00000350: 86e1 12ba 44b1 983d 8474 123d 2776 883b
00000360: 4bf8 a03d 9aa1 313c 858c 26bd 49d0 52bc
00000370: 31e3 763d 4002 013e ffe5 fc3c 76c2 553d
00000380: 0835 153e 311f ec3d 02c7 6a3d 85c3 75bd
00000390: 6759 7fbd b4bc 66bd cf11 16bd 1e36 b73d
000003a0: f3ef d83b f609 28be bcd5 e6bd ed8a 74bd
000003b0: 9c2d a53c 46c2 28bd 98f9 b7bd 217a f03c
000003c0: a771 ffbd 7813 353d fa9a a1bd af85 c6bc
000003d0: 5051 29bd 8a11 88bd 2873 debd 1f44 cb3d
000003e0: 98ff efbd ea2d 6c3d 4d44 cfbb 1a5f e23d
000003f0: 77ea 55bd d024 c3bd 1808 8b3c b85c 843c

lstm1.bias_hh_l0 f4 [256]
-0.08266716 0.07236805 -0.0017816073 -0.08619309 0.08790662 0.057654306 0.009521999 0.050924446
-0.07210973 0.058168344 -0.05230364 -0.019565973 -0.06799595 -0.12665522 0.01807707 -0.11962764
-0.030558165 0.09198889 0.04268224 0.06440902 -0.041371956 0.11102486 -0.02612708 0.035632003
-0.14019436 -0.014036417 -0.063681714 -0.022828307 0.05353419 0.1213253 0.10678102 0.104380876
-0.04089192 -0.04203893 0.11602609 0.068500884 0.1263021 0.06414832 0.019838477 -0.095361516
0.039515138 0.030735414 0.04891105 -0.013617327 0.042975858 -0.004286127 -0.10775451 -0.05498628
-0.12309365 -0.022947555 0.0014974799 -0.10712781 -0.08598793 -0.053246796 -0.0022284212 -0.07374499
-0.11192251 -0.11211004 0.053410687 0.032773744 -0.018966313 0.014512986 0.11212325 0.062043607
-0.006704977 0.11805711 0.0808917 -0.08784717 0.09890179 0.082550265 0.14733617 0.14693035
0.049205765 0.0029950321 0.030195132 -0.07531619 0.09867986 0.12086308 -0.012591298 0.06120337
-0.0621439 -0.014041165 0.14073603 0.010222222 0.13009644 -0.073111266 -0.093944445 -0.09473433
-0.10661322 0.007097688 0.07667156 0.10866827 0.053681355 0.099929415 -0.09852766 -0.06610505
-0.0016141887 0.014941522 -0.091303535 0.11192857 0.13426562 -0.06440188 -0.04028063 0.04130985
0.11487576 -0.046763655 -0.05220267 -0.059213884 -0.030184215 -0.09034526 -0.029482007 0.025351891
0.078433745 -0.07711494 0.03817203 0.12784642 0.09482468 0.021361912 0.12587535 0.04549223
-0.036793824 0.10511454 -0.07551408 0.0033776048 0.09138859 -0.021996468 0.01247513 0.039879292
0.038654547 0.0003758252 5.486497e-05 0.0673933 -0.06632741 -0.10228888 -0.029496536 0.07933849
0.030436965 0.014820608 -0.0053281826 0.061929014 0.029344238 0.090347655 -0.069804 0.060282815
-0.06914712 -0.020326834 -0.07313595 -0.10567476 -0.045164134 -0.07078316 -0.08023143 -0.101701096
-0.0823878 0.08093206 -0.07275631 0.02290678 0.060982175 0.076031186 0.038569815 -0.102195404
-0.054559164 0.1081286 0.039123572 0.014602838 0.052543383 0.017168038 -0.03062791 0.036693987
-0.06904572 -0.03442867 0.093688026 0.04105364 -0.09414828 0.014540686 -0.05372811 -0.14392124
0.06697051 0.069800794 -0.016128233 -0.06555137 -0.08401267 -0.022897672 0.05556706 -0.054954283
-0.094878174 -0.010085891 0.08632881 -0.05865882 -0.061323937 -0.11046157 -0.053948704 0.011765653
-0.07361731 0.07305966 0.029877638 0.093791135 -0.057838183 -0.0455881 0.02429665 -0.12402466
0.07956167 0.045977317 0.03249344 -0.016898647 -0.011653325 -0.1290047 -0.10950313 -0.091866516
0.028133614 -0.09027116 0.017409025 -0.12200431 0.10769029 0.0017363009 -0.123390324 0.053925414
-0.08706285 -0.023589065 -0.10255363 -0.033556655 -0.036468886 0.035158 0.11288434 0.061658666
-0.06254105 -0.00648689 -0.013550571 0.008680307 0.036498625 0.010179043 0.016542688 0.07982163
-0.10417016 0.06963706 0.04897182 0.026949141 -0.04198259 0.122743025 -0.02313817 -0.07670078
0.010937608 -0.09182565 -0.035300225 0.12408208 -0.123365946 0.02381885 0.103710994 0.060960196
0.034474686 0.07695107 -0.054473422 -0.021249536 -0.026778594 -0.046064492 0.046259135 -0.12354612
00000000: 664d a9bd b335 943d d284 e9ba 0186 b0bd
00000010: 6308 b43d ec26 6c3d 2902 1c3c 2796 503d
00000020: 44ae 93bd ee41 6e3d 573c 56bd d248 a0bc
00000030: 7641 8bbd e8b1 01be 5d16 943c 56ff f4bd
00000040: 1e55 fabc ac64 bc3d 93d3 2e3d e0e8 833d
00000050: a475 29bd 0061 e33d 7508 d6bc ddf2 113d
00000060: 1c8f 0fbe 00f9 65bc 8f6b 82bd 6e02 bbbc
00000070: ab46 5b3d 6679 f83d 02b0 da3d a4c5 d53d
00000080: 497e 27bd 0331 2cbd 169f ed3d 314a 8c3d
00000090: 5655 013e 3260 833d 4d84 a23c e64c c3bd
000000a0: a0da 213d d6c8 fb3c f456 483d 361b 5fbc
000000b0: 7407 303d a472 8cbb 66ae dcbd 4b39 61bd
000000c0: 8618 fcbd 83fc bbbc 1647 c43a d365 dbbd
000000d0: 711a b0bd 5019 5abd b40a 12bb 9d07 97bd
000000e0: a137 e5bd f399 e5bd 2ac5 5a3d c33d 063d
000000f0: 3e5f 9bbc e0c7 6d3c e0a0 e53d 7021 7e3d
00000100: 6cb5 dbbb edc7 f13d 8caa a53d 38e9 b3bd
00000110: 068d ca3d 1d10 a93d 4bdf 163e e974 163e
00000120: fc8b 493d 4d48 443b c85b f73c 603f 9abd
00000130: ab18 ca3d 1087 f73d bb4b 4ebc 63b0 7a3d
00000140: 9a8a 7ebd ea0c 66bc 1b1d 103e 1b7b 273c
00000150: 0038 053e 5cbb 95bd f265 c0bd 1304 c2bd
00000160: 0858 dabd b993 e83b fb05 9d3d 788d de3d
00000170: fbe0 5b3d cba7 cc3d dfc8 c9bd 1662 87bd
00000180: 2f93 d3ba 49cd 743c 59fd babd ce3a e53d
00000190: ed7c 093e 22e5 83bd 4dfd 24bd 8434 293d
000001a0: fc43 eb3d 3f8b 3fbd 78d2 55bd 428a 72bd
000001b0: e344 f7bc f006 b9bd 4084 f1bc c5ae cf3c
000001c0: dfa1 a03d 70ee 9dbd 465a 1c3d 2cea 023e
000001d0: 7133 c23d 2dff ae3c 78e5 003e 1056 3a3d
000001e0: 1fb5 16bd 4b46 d73d 20a7 9abd ce5a 5d3b
000001f0: f129 bb3d f031 b4bc 7d64 4c3c 7858 233d
00000200: 3b54 1e3d 680a c539 d01e 6638 8005 8a3d
00000210: aad6 87bd d57c d1bd b8a2 f1bc 387c a23d
00000220: f156 f93c 23d2 723c 0998 aebb 47a9 7d3d
00000230: 5463 f03c 3108 b93d 66f5 8ebd 1deb 763d
00000240: 019d 8dbd 7684 a6bc 4dc8 95bd 026c d8bd
00000250: 07fe 38bd c3f6 90bd 6050 a4bd aa48 d0bd
00000260: efba a8bd b5bf a53d 4301 95bd 00a7 bb3c
00000270: 72c8 793d 3db6 9b3d 62fb 1d3d d34b d1bd
00000280: 6e79 5fbd 8772 dd3d 0a40 203d be40 6f3c
00000290: bb37 573d fca3 8c3c 62e7 fabc 6f4c 163d
000002a0: d867 8dbd 1405 0dbd 82df bf3d dd27 283d
000002b0: d0d0 c0bd 0f3c 6e3c 0212 5cbd 1760 13be
000002c0: d627 893d b8f3 8e3d 5b1f 84bc cc3f 86bd
000002d0: d60e acbd e693 bbbc 499a 633d be17 61bd
000002e0: 7d4f c2bd 4b3f 25bc 29cd b03d 3b44 70bd
000002f0: cf2e 7bbd ad39 e2bd 51f9 5cbd bac4 403c
00000300: acc4 96bd 4ea0 953d f3c1 f43c 9115 c03d
00000310: bbe7 6cbd 96ba 3abd c509 c73c a400 febd
00000320: 3bf1 a23d b652 3c3d d717 053d 086f 8abc
00000330: 96ed 3ebc cf19 04be 2d43 e0bd 8324 bcbd
00000340: 7778 e63c 16e0 b8bd 5f9d 8e3c 65dd f9bd
00000350: ba8c dc3d 9794 e33a 11b4 fcbd e5e0 5c3d
00000360: 024e b2bd db3d c1bc a307 d2bd b472 09bd
00000370: 6660 15bd d601 103d e82f e73d cc8d 7c3d
00000380: 8615 80bd fa8f d4bb 3703 5ebc d937 0e3c
00000390: 957f 153d 00c6 263c 8884 873c 8679 a33d
000003a0: 2a57 d5bd e09d 8e3d ad96 483d 72c4 dc3c
000003b0: f0f5 2bbd b260 fb3d 428c bdbc 4c15 9dbd
000003c0: a733 333c 160f bcbd f896 10bd bf1e fe3d
000003d0: 49a7 fcbd c01f c33c 6e66 d43d 66b1 793d
000003e0: 5435 0d3d 8698 9d3d 861f 5fbd 8213 aebc
000003f0: c85e dbbc 1fae 3cbd 387a 3d3d c005 fdbd

lstm2.weight_ih_l0 f4 [512, 64]
-0.018563107 -0.11938258 -0.033376873 0.02503425 0.12812752 -0.110556215 -0.051398657 -0.02012807
0.009438557 -0.12676027 -0.04388572 0.106450886 0.1225894 -0.036232583 0.01612309 -0.01261824
-0.073483445 0.05124026 0.007987829 0.037776582 -0.044833127 0.02115179 -0.06212696 -0.116308786
-0.0295662 0.03976291 -0.028987372 -0.09241315 0.096530184 0.09029257 -0.028800888 0.033816602
0.08010598 -0.046724338 -0.038773157 0.006845123 0.09995252 0.07419807 0.048552923 -0.040731687
-0.12514189 -0.103571005 0.05906875 -0.09252879 0.044764396 0.09367461 0.0058333087 -0.009642017
0.031889874 -0.028233781 0.012418103 0.09244944 -0.025407346 0.12894276 0.00701218 -0.08876772
-0.0011128881 0.0045890077 0.12163353 -0.12546791 -0.12880243 -0.08195123 0.038867768 -0.061650593
-0.10147381 -0.01737407 0.06335942 0.007276643 0.010160798 -0.020485962 -0.019230489 0.016279588
0.013750834 -0.06984068 -0.096661195 0.007782273 -0.00096504076 -0.007185898 0.041879267 0.009755221
-0.04851683 -0.028319636 -0.03794622 -0.11242101 -0.08339457 -0.10915202 0.048454996 -0.07681781
-0.00858159 -0.012892768 -0.10255447 0.036184758 0.026478093 0.0821681 0.035669405 -0.053038724
-0.017668014 -0.012687655 0.051595777 -0.02342057 0.055048212 0.042488363 -0.096102305 0.04306559
0.00017843762 -0.037110735 0.0076483637 -0.0046218913 -0.08071888 -0.010982814 0.039000306 -0.0024592709
0.021645188 0.0024619799 -0.029377723 0.06565588 -0.076376386 0.075182766 0.04234046 -0.0618138
-0.035696935 0.0796362 0.08478166 0.0027072027 -0.05888954 -0.022012526 -0.018730873 0.02266622
-0.024139708 0.02151996 -0.09800889 0.06390114 -0.035774034 -0.037411466 0.0032810713 0.046636444
0.07752297 -0.0043164394 0.074953474 0.07808656 0.07089362 0.0141892815 0.026895158 0.042105503
0.07712678 -0.023302624 -0.05179859 0.0886741 0.087316245 -0.038257137 -0.047730025 -0.012002744
0.027184686 0.04506658 -0.030637547 0.07818883 0.015549365 0.038528077 0.046287175 0.007852168
-0.06879638 0.092590615 -0.057278477 0.046858933 -0.06429882 -0.0848344 0.03972944 0.03576151
0.024278374 0.07428917 0.00042014022 0.05500058 0.025845442 0.041344926 0.097980276 0.12476367
0.08099094 0.010313667 -0.042200368 -0.082411006 -0.07840034 0.04923236 0.08814369 0.073738396
0.0883539 -0.015497187 0.023468371 -0.039100725 -0.04049582 -0.00578346 0.09209795 -0.06641116
-0.06720061 -0.099681854 0.021306638 -0.0564685 0.049549866 -0.0730408 -0.051226623 0.08841104
0.04520432 -0.08742062 -0.056721017 0.05029299 0.087292194 -0.10339561 -0.012917057 0.10853238
-0.09812228 -0.058130182 -0.09572832 -0.0743534 -0.0660482 0.0656368 0.028504236 -0.053093053
0.038659524 0.06945828 0.07540912 -0.043927033 -0.012436707 0.034141093 -0.06445743 0.0058184946
0.06761238 -0.042146333 0.0507844 0.0023402884 -0.0024383562 0.055713255 0.041055836 0.08537784
-0.11188379 -0.04261907 0.061880343 -0.11996479 -0.03794133 -0.03732716 0.051016085 -0.022217035
0.05590611 0.05634777 0.046323348 0.012364844 0.015501643 0.09979134 -0.06856835 0.00484641
0.05122919 0.10766275 0.0029104473 0.07902807 0.022856666 -0.054700803 -0.027032664 0.013803033
00000000: a811 98bc db7e f4bd 30b6 08bd a114 cd3c
00000010: dc33 033e 4c6b e2bd 6687 52bd 9fe3 a4bc
00000020: 2da4 1a3c 72cd 01be 83c1 33bd ec02 da3d
00000030: 2710 fb3d 9e68 14bd 9214 843c bcbc 4ebc
00000040: 7d7e 96bd 4fe1 513d 62df 023c 9ebb 1a3d
00000050: f1a2 37bd 8546 ad3c d778 7ebd 4d33 eebd
00000060: d134 f2bc 6fde 223d ed76 edbc 1b43 bdbd
00000070: 9eb1 c53d 50eb b83d d7ef ebbc 4783 0a3d
00000080: 9b0e a43d 0562 3fbd 9ad0 1ebd 0e4d e03b
00000090: e8b3 cc3d 28f5 973d 6edf 463d 45d6 26bd
000000a0: 3225 00be 091d d4bd 13f2 713d bc7f bdbd
000000b0: df5a 373d 79d8 bf3d 5725 bf3b 8df9 1dbc
000000c0: f59e 023d 884a e7bc 4d75 4b3c 2256 bd3d
000000d0: 1123 d0bc 9209 043e 6ec6 e53b dacb b5bd
000000e0: 54de 91ba 635f 963b 001b f93d a97a 00be
000000f0: c9e4 03be 0cd6 a7bd cf33 1f3d 5585 7cbd
00000100: 80d1 cfbd 1154 8ebc 95c2 813d e870 ee3b
00000110: 7a79 263c 2dd2 a7bc 4289 9dbc c55c 853c
00000120: 2e4b 613c a108 8fbd 4ef6 c5bd 7002 ff3b
00000130: cafa 7cba ae77 ebbb 9889 2b3d 5dd4 1f3c
00000140: 95b9 46bd 95fe e7bc 7f6d 1bbd fd3c e6bd
00000150: c6ca aabd 188b dfbd bf78 463d a852 9dbd
00000160: cc99 0cbc 303c 53bc 1408 d2bd 7836 143d
00000170: 96e8 d83c c047 a83d 151a 123d 223f 59bd
00000180: 83bc 90bc e2df 4fbc 1856 533d 7fdc bfbc
00000190: 3c7a 613d 4708 2e3d 49d1 c4bd 8b65 303d
000001a0: fc1a 3b39 6d01 18bd 209f fa3b 3c73 97bb
000001b0: f14f a5bd 43f1 33bc c9be 1f3d b82b 21bb
000001c0: 4051 b13c 2b59 213b 8da9 f0bc 9776 863d
000001d0: 396b 9cbd 6cf9 993d 316d 2d3d 7830 7dbd
000001e0: f336 12bd 4e18 a33d 02a2 ad3d 536b 313b
000001f0: 2936 71bd 9d53 b4bc 7d71 99bc 82ae b93c
00000200: a3c0 c5bc a14a b03c e3b8 c8bd 9ade 823d
00000210: cb87 12bd c43c 19bd 3e07 573b db05 3f3d
00000220: 5dc4 9e3d eb70 8dbb 3581 993d d9eb 9f3d
00000230: ad30 913d 297a 683c 3c53 dc3c d276 2c3d
00000240: a5f4 9d3d 25e5 bebc c22a 54bd c49a b53d
00000250: dcd2 b23d 84b3 1cbd 8f80 43bd 28a7 44bc
00000260: 6bb2 de3c bc97 383d 98fb fabc 7721 a03d
00000270: c4c2 7e3c 9ecf 1d3d 9f97 3d3d 61a6 003c
00000280: 1ee5 8cbd 26a0 bd3d d69c 6abd 27ef 3f3d
00000290: 1aaf 83bd a8bd adbd 56bb 223d a97a 123d
000002a0: 71e3 c63c ec24 983d 4446 dc39 4a48 613d
000002b0: d2b9 d33c 4c59 293d e2a9 c83d 1884 ff3d
000002c0: 94de a53d a8fa 283c 4bda 2cbd 1ac7 a8bd
000002d0: 5c90 a0bd dfa7 493d ae84 b43d 2804 973d
000002e0: e4f2 b43d eae7 7dbc be40 c03c 1528 20bd
000002f0: f2de 25bd 2e83 bdbb da9d bc3d 9302 88bd
00000300: 79a0 89bd 0026 ccbd 428b ae3c 844b 67bd
00000310: cdf4 4a3d 6a96 95bd 02d3 51bd d910 b53d
00000320: 2a28 393d 9509 b3bd 4c54 68bd 0600 4e3d
00000330: 40c6 b23d 14c1 d3bd 10a2 53bc 3946 de3d
00000340: 55f4 c8bd ea19 6ebd 360d c4bd 9846 98bd
00000350: 4744 87bd 966c 863d b781 e93c 1a78 59bd
00000360: 7359 1e3d 2540 8e3d 1970 9a3d d5ec 33bd
00000370: 54c3 4bbc 88d7 0b3d 4202 84bd 12a9 be3b
00000380: 5c78 8a3d a2a1 2cbd 4e03 503d 865f 193b
00000390: d4cc 1fbb 9533 643d 2a2a 283d 94da ae3d
000003a0: 5423 e5bd 5591 2ebd 3e76 7d3d 1ab0 f5bd
000003b0: 5e68 1bbd 5de4 18bd 3ef6 503d 8000 b6bc
000003c0: cefd 643d ebcc 663d 8dbd 3d3d ea95 4a3c
000003d0: 9afa 7d3c 675f cc3d 906d 8cbd a2ce 9e3b
000003e0: b3d5 513d 4a7e dc3d 34bd 3e3b 78d9 a13d
000003f0: e73d bb3c f30d 60bd 9b73 ddbc 1e26 623c
