best_generator.pth (torch, 99092 bytes, 8 tensors)

lstm.weight_ih_l0 f4 [256, 10]
0	0xbd894a7c	-0.0670366
1	0x3d4e0f7d	0.05030774
2	0x3d483274	0.04887624
3	0xbd380ba5	-0.04493298
4	0xbdc7df43	-0.09759381
5	0x3d41dbbd	0.0473287
6	0xbd91fdc9	-0.07128484
7	0x3df2cc69	0.118553944
8	0xbc967046	-0.018364083
9	0x3deffa4a	0.11717661
10	0x3caff352	0.021478329
11	0xbdd789e5	-0.10524348
12	0xbd8856be	-0.0665717
13	0xbd9e8181	-0.07739545
14	0x3d0950a8	0.033524185
15	0x3d85da88	0.06535822
16	0xbce15e2e	-0.027510729
17	0xbcae07c4	-0.021243937
18	0x3df6a435	0.12043039
19	0x3ca77c52	0.020445023
20	0x3dd96cb9	0.1061644
21	0xbdb9e0f7	-0.09076112
22	0xbda38735	-0.07984773
23	0x3d412b2f	0.047160324
24	0xbd92602e	-0.07147251
25	0xbdc1c7e9	-0.09461958
26	0x3d9f89db	0.07789966
27	0x3daca652	0.084301606
28	0xbd82b92e	-0.063829765
29	0x3d8d776b	0.06907543
30	0x3d562bce	0.05228787
31	0x3d3613d2	0.044452496
32	0xbe08b394	-0.13349754
33	0x3dde7e46	0.108639285
34	0xbdc33697	-0.095318966
35	0xbcd46310	-0.025926143
36	0xbd6447c3	-0.0557325
37	0xbd9cef5a	-0.0766284
38	0x3cc11f47	0.023574485
39	0x3d060290	0.032717288
40	0xbd5b7c3d	-0.05358528
41	0x3dd8f42c	0.10593447
42	0xbdbdf45c	-0.092751235
43	0xbd434cb5	-0.047680575
44	0xbd7aa442	-0.061191805
45	0xbda230a1	-0.079194315
46	0xbdae08b0	-0.08497751
47	0xbd81e9b7	-0.06343406
48	0xbd4b9e34	-0.04971142
49	0x3a4ea8c8	0.0007883427
50	0xbc9eb298	-0.01937227
51	0x3b1e1f52	0.0024127555
52	0xbd86f21e	-0.06589149
53	0x3d69d012	0.057083197
54	0x3dd91a20	0.10600686
55	0xbc9517aa	-0.01819976
56	0xbdd58e72	-0.1042756
57	0xbd98a45f	-0.07453226
58	0x3dae6e3f	0.085171215
59	0x3dc38dcd	0.09548531
60	0x3d9e01e2	0.07715203
61	0xbdc4e253	-0.096134804
62	0x3dd48801	0.10377503
63	0xbd4213a3	-0.04738201
64	0xbd2872e9	-0.041125212
65	0xbd7cf993	-0.06176145
66	0x3db6f005	0.08932499
67	0xbdc21e4e	-0.094784364
68	0x3d985089	0.07437236
69	0xbb00e069	-0.001966501
70	0xbcf08612	-0.029360805
71	0xbbb34c95	-0.005471776
72	0x3c0a8f5c	0.008457031
73	0xbd9b172d	-0.0757278
74	0x3d8ce04b	0.06878718
75	0x3c1c0a10	0.009523883
76	0xbdddbc2f	-0.10826909
77	0xbdb8a766	-0.09016304
78	0x3d05b0e9	0.032639418
79	0x3c2f584c	0.010702204
80	0x3c87f51c	0.01659637
81	0xbdb2ef1b	-0.08737012
82	0xbd2669d4	-0.04062827
83	0x3df6b6b3	0.12046566
84	0x3db2af58	0.087248504
85	0xbda287a1	-0.079360254
86	0xbdde003d	-0.10839889
87	0x3da117bd	0.07865856
88	0xbdf54096	-0.119752094
89	0xbd89e4b1	-0.067330725
90	0xbc503940	-0.012708962
91	0xbdcd63c5	-0.10028795
92	0x3d1822db	0.037142616
93	0x3dbaeb87	0.091269545
94	0x3beffbb6	0.0073237075
95	0xbdecac7a	-0.11556335
96	0xbca9000a	-0.020629901
97	0xbd5ed81f	-0.054405328
98	0xbdfec6f2	-0.124402896
99	0x3d367ba5	0.04455151
100	0xbdb8b1e5	-0.09018306
101	0xbd3ad27f	-0.0456109
102	0x3c998fdd	0.018745357
103	0xbc037567	-0.008023596
104	0xbd82a07a	-0.06378265
105	0x3c4cb45c	0.012494173
106	0xbd812706	-0.06306271
107	0x3c121c69	0.008917906
108	0xbd01091a	-0.03150282
109	0xbdc6324b	-0.09677561
110	0x3dc8dd9b	0.09807893
111	0x3d5b925d	0.05360638
112	0xbdfab5f9	-0.1224174
113	0xbde0939c	-0.10965654
114	0xbbd313b9	-0.00644156
115	0xbce06a6b	-0.027394494
116	0x3ddfd927	0.109300904
117	0xbcd768ee	-0.026295152
118	0xbde9da2f	-0.11418568
119	0xbdc8f5fe	-0.09812544
120	0x3de8048f	0.113289945
121	0xbc8ca98a	-0.017170686
122	0xbd9090c2	-0.0705886
123	0x3b1fcbb4	0.002438289
124	0xbde9e07a	-0.11419769
125	0xbb2b98eb	-0.0026183676
126	0x3d83d5ec	0.06437287
127	0x3e01145a	0.1260542
128	0x3d2d5e61	0.042326335
129	0x3dc839a3	0.09776618
130	0xbbea1ec1	-0.0071447794
131	0x3de75595	0.1129562
132	0xbcf8e88e	-0.030384328
133	0xbcc780a2	-0.02435333
134	0x3c8eb941	0.01742232
135	0xbc586088	-0.013206609
136	0x3ca955e8	0.020670846
137	0xbc5918a3	-0.013250503
138	0xbc5723b2	-0.013131069
139	0x3cc44c05	0.02396203
140	0x3dedf7cd	0.1161953
141	0x3d66f521	0.056386117
142	0x3d6d1da8	0.05788961
143	0x3d6f2d92	0.05839307
144	0xbdb1aea4	-0.08675888
145	0xbd23d2f2	-0.039996095
146	0x3dbdd909	0.09269912
147	0x3da48d2b	0.08034738
148	0x3da9cb3a	0.082907155
149	0x3c977e04	0.018492706
150	0x3ca53397	0.020166202
151	0xbd813803	-0.063095115
152	0x3df669d5	0.120319046
153	0xbcca6a33	-0.024708843
154	0x3e0af7c9	0.13571085
155	0x3cc10412	0.023561511
156	0xbdc9203d	-0.09820602
157	0xbc5a0d9a	-0.013308907
158	0xbc9321df	-0.017960487
159	0xbc13c32e	-0.009018702
160	0x3da230ef	0.079194896
161	0x3d03d4c8	0.032185346
162	0x3ca70a25	0.02039058
163	0xbd592f3d	-0.053023566
164	0xbcfa3502	-0.030542854
165	0xbcd3326e	-0.025780883
166	0x3dc37576	0.09543888
167	0xbc23ca69	-0.009996989
168	0x3de912e7	0.113805585
169	0xbdf30dcb	-0.11867865
170	0xbdde8068	-0.10864335
171	0xbd384eec	-0.04499714
172	0xbdc98711	-0.09840215
173	0xbd0336f8	-0.032034844
174	0x3e06e78e	0.13174269
175	0x3b7e2d6e	0.0038784402
176	0xbdfda2e6	-0.12384586
177	0x3b0c640d	0.002142194
178	0x3d7032c2	0.058642156
179	0x3db4d39f	0.08829426
180	0xbd630991	-0.055429045
181	0xbdafbc75	-0.08580867
182	0x3cacfc3b	0.021116367
183	0xbdba05e8	-0.09083158
184	0x3d374107	0.04473975
185	0xbdd624c4	-0.10456231
186	0x3b175a05	0.0023094427
187	0x3dcec1f6	0.10095589
188	0xbd7662d8	-0.06015286
189	0xbde7428e	-0.11291991
190	0x3ddf1bb4	0.10893956
191	0x3df852e4	0.12125185
192	0xbccbdf40	-0.024886727
193	0x3c9e1d4c	0.01930108
194	0x3ce8a460	0.028398693
195	0x3d841842	0.06449939
196	0x3ca889fa	0.020573605
197	0xba8a35d7	-0.001054461
198	0x3d0b85ed	0.03406327
199	0xbce6a23f	-0.028153537
200	0xbde0f124	-0.10983494
201	0x3c9a3462	0.018823806
202	0xbd14fea0	-0.03637564
203	0x3c37d679	0.011220568
204	0xbcc5e3e5	-0.02415652
205	0xbd29e8e8	-0.041481882
206	0xbde4e304	-0.11176112
207	0xbd4757d2	-0.048667736
208	0xbd5987d6	-0.05310806
209	0x3da1ca6e	0.078999385
210	0xbda8e42e	-0.08246647
211	0x3cd38b2e	0.025823202
212	0xbdf52d0a	-0.11971481
213	0xbd28ccaf	-0.041210826
214	0x3ddd4850	0.10804808
215	0x3dcb234f	0.09918844
216	0xbce1e94f	-0.02757707
217	0x3da9d2c1	0.08292151
218	0x3d81c42a	0.063362435
219	0xbcd48610	-0.025942832
220	0x3d458d0b	0.048230212
221	0xbd6f58c2	-0.058434255
222	0xbd9199de	-0.07109426
223	0xbd296c2d	-0.04136293
224	0xbdb71d0c	-0.08941087
225	0xbc9273b7	-0.017877443
226	0x3bc8d01e	0.006128325
227	0x3d7f25b2	0.06229181
228	0x3e04c408	0.12965405
229	0xbb81990f	-0.0039550136
230	0x3de74a33	0.11293449
231	0x3ceea8fd	0.029133314
232	0x3d37704e	0.044784836
233	0x3caf1dcf	0.021376519
234	0x3cd40644	0.025881894
235	0x3d550c51	0.0520137
236	0xbd940d88	-0.072291434
237	0x3d217ea0	0.0394274
238	0x3dbb3f50	0.09142935
239	0x3d224171	0.03961319
240	0xbde504c8	-0.111825526
241	0x3ca2b86a	0.019863326
242	0xbd310ddf	-0.04322612
243	0xbd96cbda	-0.073631
244	0xbda3ad7f	-0.07992076
245	0x3d7d2a49	0.061807904
246	0xbd8fb471	-0.07016838
247	0x3cfec80c	0.03110125
248	0x3db7d62a	0.089763954
249	0x3b8fac4d	0.0043845535
250	0xbdf585c3	-0.11988404
251	0x3dbb5ad0	0.091481805
252	0x3da67a01	0.08128739
253	0x3dd5178b	0.10404881
254	0x3de2eb1d	0.110800005
255	0xbbd353ba	-0.00644919

lstm.weight_hh_l0 f4 [256, 64]
0	0xbd8a21a3	-0.06744697
1	0x3da8ec52	0.082481995
2	0xbd83a59c	-0.06428072
3	0xbd91b9d3	-0.07115521
4	0x3db55ff7	0.088561945
5	0xbc844823	-0.016147679
6	0xbd4bc8b8	-0.049751967
7	0x3b84d8cc	0.0040541645
8	0x3d5cfd09	0.05395225
9	0xbddaf926	-0.106920525
10	0xbdb008b9	-0.08595414
11	0xbdf7d5cd	-0.12101326
12	0x3dbf2754	0.09333673
13	0xbd338536	-0.04382821
14	0xbd1b33c6	-0.037891172
15	0x3d68fa6d	0.05687945
16	0x3d0a77e4	0.033805743
17	0xbcc9e0e4	-0.024643369
18	0x3d205756	0.03914579
19	0x3df8e24a	0.12152536
20	0x3c0e6959	0.008692109
21	0x3d374372	0.044742055
22	0xbdecede2	-0.1156881
23	0xbc71bbb8	-0.014754228
24	0x3cce2989	0.02516629
25	0xbcd7a76f	-0.026324956
26	0xbda18a89	-0.078877516
27	0xbdda47ee	-0.10658251
28	0xbd04cc52	-0.032421418
29	0xbcf3ac7a	-0.02974533
30	0xbcfabb5b	-0.030606916
31	0xbd7de7a5	-0.06198849
32	0xbc9336cd	-0.017970467
33	0xbdf8f4f5	-0.12156097
34	0x3d9c174d	0.07621632
35	0xbdcd15da	-0.100139335
36	0x3dbd914e	0.0925623
37	0xbdc64ef8	-0.09683031
38	0xbd820045	-0.06347708
39	0xbdd2b157	-0.10287731
40	0x3ddbb497	0.10727804
41	0x3d826c0b	0.06368264
42	0x3c72a272	0.014809238
43	0x3cf949f6	0.030430775
44	0xbdc96a80	-0.098347664
45	0x3d95bd7e	0.073115334
46	0x3ce85864	0.02836246
47	0xbc85c1f4	-0.016327836
48	0x3d361a8d	0.044458915
49	0x3c798633	0.0152297495
50	0xbd6a0366	-0.057132147
51	0xbcec35f8	-0.028834328
52	0xbd88d24e	-0.066807374
53	0x3de2079f	0.1103661
54	0x3dd3ff48	0.103514254
55	0xbd88ec5a	-0.066857055
56	0x3dc702cc	0.0971733
57	0xbc6abd44	-0.014327351
58	0xbd0d58bb	-0.034508448
59	0xbc8c2627	-0.017108036
60	0xbd36df35	-0.04464646
61	0x3d6c7929	0.057732735
62	0xbd9967aa	-0.074904755
63	0x3d96a086	0.07354836
64	0xbd84f8e9	-0.06492788
65	0xbd9a8bdb	-0.075462066
66	0x3c0e3ba5	0.008681213
67	0x3d193c96	0.037411295
68	0xbb8a742d	-0.004225275
69	0x3d97d9d8	0.07414597
70	0xbd9892d6	-0.07449882
71	0xbd5fb660	-0.054617286
72	0x3d04c7f4	0.032417253
73	0x3d5540d6	0.052063785
74	0xbd6dde80	-0.05807352
75	0x3ddb6a09	0.10713584
76	0x3dde98ef	0.108690135
77	0xbb4ed200	-0.0031558275
78	0x3d892a2a	0.06697495
79	0x3d934ed9	0.07192773
80	0xbdf04a10	-0.11732876
81	0x3dd6b388	0.104834616
82	0xbdf77c2e	-0.12084232
83	0x3d90d5c1	0.0707202
84	0x3cfcd4e5	0.030863235
85	0xbce4accc	-0.027914427
86	0x3d27fcc6	0.041012548
87	0xb9f0d5fb	-0.00045935795
88	0x3dabfba4	0.08397606
89	0xbdd12db8	-0.10213798
90	0x3de9e1d1	0.11420024
91	0xbd7464f7	-0.0596666
92	0xbce2da42	-0.027691964
93	0x3da9e11e	0.08294891
94	0x3d48b749	0.04900292
95	0xbdb159bf	-0.08659696
96	0x3dc94326	0.09827261
97	0xbd7c2a27	-0.061563637
98	0xbd88adc5	-0.06673769
99	0x3dd5f334	0.10446778
100	0xbdafb6f7	-0.0857982
101	0xbd965261	-0.07339931
102	0x3df5a651	0.11994613
103	0x3cfed84d	0.031109
104	0x3dd7d7d2	0.10539211
105	0x3cef2039	0.02919017
106	0x3c16db5e	0.009207575
107	0x3dc2a467	0.095040135
108	0xbd6f2154	-0.058381394
109	0xbc1d8904	-0.009615187
110	0xbd3777e6	-0.04479208
111	0xbd61bc27	-0.055111077
112	0xbde7f0a5	-0.11325196
113	0xbd3ac458	-0.045597404
114	0x3c76e826	0.015069997
115	0xbdd9015d	-0.10595963
116	0x3d9fea94	0.07808414
117	0x3da627a5	0.0811303
118	0xbd44500c	-0.0479279
119	0x3dc5a01e	0.096496806
120	0xbc714235	-0.014725258
121	0xbe01c412	-0.12672451
122	0xbdda733d	-0.10666511
123	0x3ca7e333	0.02049408
124	0xbd4c3d12	-0.04986293
125	0xbd07a4f9	-0.033116315
126	0xbd872d0f	-0.06600391
127	0xbd8fe152	-0.07025398
128	0x3d9141e5	0.070926465
129	0xbd2681fd	-0.04065131
130	0xbc9694a6	-0.018381428
131	0xbde5abbf	-0.112143986
132	0xbdd95f0e	-0.10613833
133	0xbc4c93b8	-0.012486391
134	0xbd902222	-0.0703776
135	0x3dc1e509	0.09467513
136	0xbdac6cb8	-0.08419174
137	0x3dd66bd8	0.10469788
138	0xbdf0ff5e	-0.117674574
139	0xbd88e2d8	-0.06683892
140	0xbd4d1158	-0.05006537
141	0x3dd749cb	0.10512122
142	0xbd0dc5ef	-0.034612592
143	0x3d491824	0.049095288
144	0x3dcdbc64	0.10045698
145	0xbd2785a7	-0.040898945
146	0xbd9720ca	-0.07379301
147	0xbc90be30	-0.017668813
148	0x3d9ec83b	0.07753035
149	0x3bc47954	0.0059959088
150	0x3babb8d1	0.0052405377
151	0x3daac0a6	0.08337526
152	0x3d14f6c3	0.036368143
153	0xbcffcc8c	-0.031225465
154	0xbd5004d9	-0.050785873
155	0xbd8d3e6e	-0.06896673
156	0xbddeb49f	-0.108742945
157	0xbdb43c66	-0.088005826
158	0x3de1cb01	0.11025048
159	0xbdf6e0ca	-0.12054594
160	0xbdaa39a1	-0.08311773
161	0xbde678f6	-0.1125354
162	0x3d98c8e4	0.07460192
163	0xbdfc52a3	-0.12320449
164	0x3d5437be	0.051810972
165	0x3df5d1ba	0.12002893
166	0x3dc3184d	0.095261194
167	0x3ddfc0e5	0.109254636
168	0x3ddb4ff2	0.10708608
169	0x3b2850b4	0.0025682868
170	0x3d7b4689	0.061346564
171	0xbd88cd52	-0.06679787
172	0xbc89739f	-0.016778765
173	0x3d9b3347	0.0757814
174	0x3ddfc3b0	0.10925996
175	0x3d418fdb	0.047256332
176	0x3d562305	0.05227949
177	0x3d1d6691	0.038427893
178	0x3de1310f	0.10995685
179	0xbc70f258	-0.014706217
180	0x3d8e87f4	0.06959525
181	0xbd6a91ea	-0.05726806
182	0x3de19d79	0.11016364
183	0xbd89f593	-0.06736293
184	0xbc938b52	-0.018010769
185	0xbdc48269	-0.09595186
186	0xbdd325b1	-0.103099234
187	0xbdb7f5db	-0.0898244
188	0xbda136e2	-0.07871796
189	0x3d8d4511	0.06897939
190	0xbd9b6d2b	-0.075891815
191	0x3dd2ac9e	0.1028683
192	0x3c9e3179	0.0193107
193	0x3d964644	0.07337621
194	0xbdbbe887	-0.091752104
195	0x3dd13cfe	0.102167115
196	0x3dd908ca	0.105973795
197	0x3d581de5	0.052762885
198	0x3de204f4	0.11036101
199	0x3d93df7f	0.07220363
200	0x3b067488	0.0020516235
201	0x3d4b4f4d	0.049636174
202	0x3d4222ee	0.047396593
203	0xbda76c8d	-0.08175001
204	0xbda07ee9	-0.07836706
205	0xbbc7bd64	-0.006095575
206	0xbde265c4	-0.110545665
207	0x3df912f3	0.121618174
208	0xbc4d2a68	-0.0125223175
209	0xbda75c4d	-0.08171902
210	0xbce9450a	-0.028475303
211	0xbd2cd437	-0.04219457
212	0xbd1646a4	-0.036688462
213	0xbd8a8bfa	-0.0676498
214	0xbbeefb0b	-0.0072931102
215	0x3d3ec6af	0.0465762
216	0x3db3c4b6	0.08777754
217	0x3dcc73ca	0.099830225
218	0x3df0aa0c	0.11751184
219	0x3c5fc1a4	0.013657007
220	0xbdd1a7f6	-0.10237114
221	0x3dfddef8	0.123960435
222	0xbbc6a037	-0.0060615796
223	0x3ce896a9	0.028392153
224	0x3d0d312c	0.034470722
225	0xbd56cda7	-0.05244222
226	0x3d7b7df1	0.061399404
227	0xbcd1c842	-0.025608186
228	0xbe021bc2	-0.12705901
229	0x3da9b808	0.08287054
230	0x3d0adb68	0.03390065
231	0xbb0d29a0	-0.0021539703
232	0x3deca613	0.11555114
233	0xbcc1167c	-0.023570292
234	0x3e052e71	0.13005997
235	0xbd293c7d	-0.04131745
236	0xbd8df1c5	-0.069308795
237	0x3d2b5307	0.041827228
238	0x3d8aae99	0.06771583
239	0x3d558577	0.052129235
240	0x3dd4e870	0.103958964
241	0x3deff1bc	0.11716029
242	0xbce9085c	-0.028446369
243	0x3da80a19	0.08205051
244	0x3c21af1c	0.0098684095
245	0xbda2e61e	-0.079540476
246	0xbd907cf4	-0.07055083
247	0x3da0cc85	0.07851509
248	0xbd8d238c	-0.06891546
249	0xbdef43b0	-0.11682832
250	0xbb7b35bc	-0.0038331589
251	0xbd6a93c5	-0.05726983
252	0xbdc25a29	-0.09489853
253	0xbdd0fe28	-0.102047265
254	0x3cba4fe7	0.022743179
255	0xbdde0bca	-0.10842092

lstm.bias_ih_l0 f4 [256]
0	0x3da9c31b	0.082891665
1	0x3cfd4084	0.030914553
2	0x3d602456	0.054722153
3	0x3d44ec49	0.0480769
4	0x3df11d29	0.1177314
5	0xbdd40bd0	-0.103538156
6	0xbd7af270	-0.061266363
7	0xbdc45bdf	-0.095878355
8	0xbb63cc2a	-0.0034759142
9	0xbd556ac0	-0.052103758
10	0x3d3a76f5	0.045523603
11	0xbdd53cb3	-0.10411968
12	0xbdbf4bf6	-0.0934066
13	0xbcfa0952	-0.030522022
14	0xbc332bda	-0.010935748
15	0x3df19ed4	0.11797872
16	0x3dc4db77	0.09612172
17	0xbdb416b5	-0.087933935
18	0x3cddcad3	0.027074253
19	0xbd249c9a	-0.04018841
20	0x3d704fcb	0.058669847
21	0xbd8f05d4	-0.069835335
22	0xbcc59bec	-0.0241222
23	0x3d85e813	0.06538405
24	0xbcd6b3db	-0.026208809
25	0xbd59ac9d	-0.053143132
26	0xbda10025	-0.07861356
27	0xbdd4806f	-0.10376059
28	0x3c572eab	0.013133685
29	0xbcafdec4	-0.021468528
30	0x3e07b06e	0.13250896
31	0x3d32c112	0.043641157
32	0x3cd9357a	0.026514757
33	0xbdecf68b	-0.11570462
34	0x3d673a36	0.056452
35	0x3da53ae7	0.08067875
36	0x3de36997	0.11104124
37	0xbcf62f98	-0.030051991
38	0xbd9f08a2	-0.077653185
39	0xbde6fe87	-0.11279016
40	0xbd4a0617	-0.049322214
41	0xbde2be5e	-0.11071466
42	0x3cd5541c	0.026041083
43	0xbc314e50	-0.010821894
44	0x3ddf66f0	0.10908306
45	0x3bc04b08	0.0058683194
46	0x3dab8f39	0.08376927
47	0x3d8fb464	0.07016829
48	0xbdc89ee2	-0.097959295
49	0xbdde4edc	-0.10854885
50	0x3ced9de5	0.029005954
51	0xbd9f9d59	-0.077936836
52	0xbd45d8de	-0.048302524
53	0x3ca8404f	0.020538477
54	0xbdd56f60	-0.10421634
55	0x3d319418	0.043354124
56	0xbd064f53	-0.032790493
57	0xbd64e245	-0.05587985
58	0x3d52a67c	0.051428303
59	0xbde00943	-0.109392665
60	0x3dbe2ba4	0.092856675
61	0x3c107233	0.00881629
62	0x3de57451	0.11203826
63	0xbc477caa	-0.012175718
64	0x3dbc2580	0.0918684
65	0xbd48238d	-0.04886203
66	0xbdea681a	-0.11445637
67	0x3ca7ede5	0.02049918
68	0xbddac7ad	-0.106826164
69	0x3d97ffc1	0.07421828
70	0x3df0a83e	0.1175084
71	0xbda6edb4	-0.08150807
72	0xbdc1d949	-0.09465272
73	0xbe04d6a9	-0.12972511
74	0x3c8ee3c2	0.017442588
75	0xbd82dcbe	-0.063897595
76	0xbd17478c	-0.036933467
77	0x3db7708c	0.089570135
78	0x3d89ed0d	0.06734667
79	0x3df3f88a	0.119126394
80	0xbdbcfc95	-0.09227864
81	0xbdf6919d	-0.12039492
82	0x3c9e159d	0.019297415
83	0x3dea1c59	0.11431188
84	0x3c98689c	0.01860457
85	0x3e01e84c	0.1268627
86	0xbddd6f7e	-0.10812281
87	0xbd9bce42	-0.076077
88	0xbcce534e	-0.025186207
89	0xbc98d507	-0.018656267
90	0xbcf27f79	-0.0296018
91	0x3dee08fa	0.11622806
92	0xbd97efd3	-0.0741879
93	0x3d4c742a	0.04991547
94	0x3dafc94d	0.08583317
95	0xbca83c75	-0.02053664
96	0x3d98b823	0.07456996
97	0x3d006e41	0.031355146
98	0xbd01f6b7	-0.031729426
99	0xbca399e7	-0.019970847
100	0xbdd7d26f	-0.10538184
101	0xbc4f94ed	-0.012669784
102	0x3cf24417	0.029573483
103	0xbda60ce2	-0.08107926
104	0x3df453a1	0.119300134
105	0xbdd9d8ac	-0.1063703
106	0xbc8e2c7b	-0.017355194
107	0xbdc05697	-0.09391516
108	0xbd943c25	-0.07238034
109	0x3c8aeea4	0.016959496
110	0x3d71a24a	0.05899266
111	0xbd8fbe63	-0.07018735
112	0xbd7edb02	-0.06222058
113	0x3b40cf66	0.0029420494
114	0xbd3c94b5	-0.046040256
115	0x3de4946d	0.111611225
116	0xbcdd6563	-0.027025884
117	0xbc9d228f	-0.019181518
118	0xbd784af1	-0.060618345
119	0x3d43fdf5	0.047849614
120	0xbdca9ddc	-0.098933905
121	0x3d5e0673	0.05420537
122	0xbd86d848	-0.06584221
123	0x3dc24f52	0.094877854
124	0x3de18e1f	0.110134356
125	0x3d44ec8c	0.04807715
126	0x3d72c1b9	0.05926678
127	0xbc03ec9d	-0.0080520185
128	0xbc70e5d4	-0.014703233
129	0x3dfe6d34	0.124231726
130	0x3d21d3ce	0.039508633
131	0xbb2dfbed	-0.0026547865
132	0xbae3f200	-0.0017390847
133	0xbc0f61e9	-0.008751371
134	0xbdc4257e	-0.095774636
135	0x3da18f2e	0.078886375
136	0xbda885d8	-0.08228654
137	0xbd8160a4	-0.06317261
138	0x3d937b80	0.0720129
139	0x3d0a433e	0.033755533
140	0xbd76033f	-0.06006169
141	0xbd47a3b0	-0.04874009
142	0x3df8a024	0.121399194
143	0xbdfbe110	-0.12298787
144	0xbe03fb46	-0.12888822
145	0x3dbe54ca	0.09293516
146	0x3e060e28	0.13091338
147	0xbd87a369	-0.06622965
148	0x3d29dd3f	0.041470762
149	0xbd90e9e4	-0.07075861
150	0xbd14330a	-0.036181487
151	0xbc984913	-0.018589532
152	0x3df7214c	0.12066898
153	0x3d798b09	0.06092361
154	0xbdf219cd	-0.11821327
155	0x3caee5e4	0.021349855
156	0x3da09304	0.07840541
157	0xbda91c5f	-0.082573645
158	0xbd90632a	-0.07050164
159	0xbcff2fe5	-0.031150768
160	0x3cb3348a	0.021875639
161	0xbd834f4f	-0.06411611
162	0x3d0932c2	0.033495672
163	0x3dbcdbec	0.09221634
164	0x3d70fdd5	0.058835823
165	0xbdeeb06d	-0.11654744
166	0xbdaa7502	-0.08323099
167	0xbdc453ae	-0.09586273
168	0xbdbd0353	-0.0922915
169	0x3c9f1657	0.019419832
170	0xbd8990eb	-0.06717094
171	0xbd9587ad	-0.07301269
172	0xbdda1703	-0.106489204
173	0x3db297cb	0.087203585
174	0xbd0f35d2	-0.034963436
175	0x3daba535	0.0838112
176	0x3d367502	0.04454518
177	0x3d9d12f4	0.07669631
178	0xbd9426a3	-0.07233932
179	0x3db12c1e	0.08650993
180	0xbdcf9a29	-0.101368256
181	0xbdc957f5	-0.098312296
182	0x3d7caa76	0.061686
183	0xbde36635	-0.11103479
184	0x3d9727f7	0.073806696
185	0xbdf1788f	-0.11790573
186	0xbdb4253c	-0.087961644
187	0x3d13198f	0.035913046
188	0x3d2b9ae5	0.041895766
189	0x3d877ea8	0.06615955
190	0xbdb60227	-0.08887129
191	0xbd4b930d	-0.049700785
192	0x3bfc864a	0.007706438
193	0xbcaef89a	-0.021358777
194	0xbbf6b6b9	-0.0075291065
195	0x3dd9c5ec	0.10633454
196	0xbbe82c32	-0.0070853466
197	0x3de629dc	0.11238453
198	0x3cbf7e40	0.02337563
199	0xbde0ba49	-0.10973031
200	0xbd8353cb	-0.064124666
201	0xbd978d80	-0.07400036
202	0x3bae33c6	0.0053162305
203	0xbbe797a6	-0.0070676384
204	0xbdb5f884	-0.08885291
205	0x3dc5c63f	0.09656953
206	0x3ca2e3a6	0.019883942
207	0x3cbcdade	0.023053583
208	0x3de165ca	0.11005743
209	0x3dffdfc6	0.12493853
210	0xbd29a38d	-0.04141574
211	0xbd234cc9	-0.03986815
212	0xbc27528c	-0.010212552
213	0x3ce1b962	0.027554218
214	0xbd36cd17	-0.044629183
215	0x3dd33f0e	0.10314761
216	0xbcbcc5a4	-0.023043461
217	0xbda9f37f	-0.08298396
218	0x3d9b46fc	0.075818986
219	0x3df16af5	0.117879786
220	0x3d0e3678	0.034719914
221	0x3e048fc8	0.12945473
222	0xbda5ba15	-0.08092133
223	0x3c3b492e	0.011431022
224	0xbe02c9ed	-0.12772341
225	0xbde9c689	-0.11414821
226	0x3d756642	0.059911974
227	0xbdc987b9	-0.0984034
228	0xbda4698c	-0.08027944
229	0x3cb8b427	0.02254684
230	0xbd165e5e	-0.03671109
231	0x3da9d565	0.08292655
232	0xbddbdf89	-0.10735995
233	0xbd10142a	-0.03517548
234	0xbdbbd702	-0.09171869
235	0xbdde1975	-0.10844699
236	0xbe004898	-0.12527692
237	0x3d3a4ade	0.045481555
238	0x3d78e522	0.060765393
239	0x3df10ef2	0.11770429
240	0xbd5550d9	-0.052079055
241	0xbdb349e5	-0.08754329
242	0xbc5d28df	-0.013498514
243	0x3cffa4a6	0.03120644
244	0x3dc68dab	0.0969499
245	0xbce27d0d	-0.02764752
246	0x3dae1cad	0.08501563
247	0xbd3721d7	-0.044710007
248	0x3d5b2575	0.05350252
249	0x3cf964c8	0.030443564
250	0xbd3a5470	-0.045490682
251	0xbc7e400a	-0.015518198
252	0xbd7a0b71	-0.061046068
253	0xbd05e429	-0.032688294
254	0xbd219aec	-0.039454386
255	0xbcbdd155	-0.023171106

lstm.bias_hh_l0 f4 [256]
0	0x3dfdb273	0.12387552
1	0xbddda991	-0.10823358
2	0xbdfd9343	-0.123816036
3	0x3dc4ddae	0.096125945
4	0xbc83e245	-0.016099105
5	0xbc38d29c	-0.011280682
6	0x3d35dc5c	0.044399604
7	0xbd008802	-0.031379707
8	0xbdd328b6	-0.10310499
9	0xbdd3a7b8	-0.10334724
10	0x3b781457	0.003785392
11	0x3d18b989	0.037286315
12	0x3d9f8556	0.07789104
13	0x3c38e14d	0.011284185
14	0x3d25f6a8	0.040518433
15	0xbd947606	-0.07249074
16	0xbd8411f1	-0.064487346
17	0x3dd75639	0.105144925
18	0x3dbbdbee	0.09172808
19	0xbdf080be	-0.117433056
20	0x3d6b5529	0.057454262
21	0x3d8d5ad4	0.0690209
22	0x3d2f6ef8	0.042830437
23	0xbdaae04f	-0.08343565
24	0xbd7a748f	-0.061146315
25	0xbdda3248	-0.10654122
26	0x3d859687	0.065228514
27	0xbcecbf71	-0.02889988
28	0xbd780296	-0.06054934
29	0x3d76c8ff	0.06025028
30	0xbd5b9233	-0.053606223
31	0x3de7b8d3	0.11314549
32	0x3c00cdba	0.007861549
33	0xbcc23c8a	-0.023710508
34	0x3bbab9e9	0.0056984317
35	0x3bd58f7b	0.0065173483
36	0xbd6b3a36	-0.05742856
37	0x3bdcc09e	0.006736829
38	0x3d9795d2	0.07401623
39	0x3dea2d0d	0.11434374
40	0xbd4d4a4b	-0.05011968
41	0x3d93d4d0	0.07218325
42	0xbc03ed79	-0.008052223
43	0x3dfe4c83	0.12416937
44	0x3d819080	0.06326389
45	0xbdacb603	-0.084331535
46	0xbd832cb1	-0.064050086
47	0x3cba9010	0.022773772
48	0x3c5a5948	0.01332695
49	0xbcf0f656	-0.029414337
50	0xbc4a29bc	-0.012339052
51	0x3dce7caf	0.10082375
52	0x3d5543fa	0.05206678
53	0x3ca1e1d7	0.01976101
54	0xbd9df212	-0.07712187
55	0x3b968c8e	0.004594392
56	0x3ca3881e	0.019962367
57	0x3da8fa68	0.08250886
58	0x3d9ac74d	0.07557545
59	0x3d07c08e	0.03314262
60	0xbce46872	-0.027881835
61	0xbb813f6b	-0.0039443276
62	0x3cb47344	0.02202762
63	0xbd5b1a5c	-0.053491935
64	0xbd97290c	-0.07380876
65	0x3dcfa2cd	0.10138474
66	0x3ba8656d	0.005139044
67	0x3d4cc101	0.04998875
68	0xbd191c5d	-0.037380565
69	0x3d200f23	0.039076935
70	0xbc0afd74	-0.0084832795
71	0xbd824456	-0.0636069
72	0x3cee0970	0.029057235
73	0xbda8310c	-0.0821248
74	0xbc95c362	-0.018281642
75	0x3cc75518	0.024332568
76	0x3d988014	0.07446304
77	0xbda394d2	-0.079873696
78	0x3c2ba6af	0.010476752
79	0xbc88b933	-0.016689872
80	0x3d8ce6cd	0.06879959
81	0x3d84dcf6	0.064874575
82	0x3dbaf934	0.09129563
83	0xbd909fb9	-0.07061715
84	0x3dd42084	0.10357764
85	0xbdae080e	-0.0849763
86	0xbd66f9a5	-0.056390423
87	0xbceeff8f	-0.029174594
88	0x3cdfe334	0.027330019
89	0x3d8cf892	0.068833485
90	0xbd09b0d7	-0.033615913
91	0x3d5356bf	0.0515964
92	0x3cde0004	0.027099617
93	0xbd33e2da	-0.043917514
94	0x3d1bfde9	0.038083944
95	0xbcb010a5	-0.021492312
96	0xbda37819	-0.07981891
97	0xbdbccb71	-0.09218491
98	0xbd8e2af3	-0.06941786
99	0x3dd9880c	0.10621652
100	0x3daebfdd	0.08532689
101	0x3db6f0d7	0.08932655
102	0x3d9056fc	0.07047841
103	0xbd5b2ab7	-0.053507533
104	0x3dcd66b9	0.100293584
105	0x3da51ab6	0.08061735
106	0xbd9811cf	-0.07425272
107	0xbcacd189	-0.021096008
108	0xbd3f1cd0	-0.046658337
109	0xbd8fe7d2	-0.07026638
110	0xbdc23464	-0.09482649
111	0xbd678242	-0.056520708
112	0xbdb9ff84	-0.09081939
113	0xbcd03c4e	-0.02541938
114	0xbd908023	-0.0705569
115	0xbca0505e	-0.019569572
116	0xbd943e1b	-0.07238408
117	0x3ccc61e9	0.024949031
118	0x3de93223	0.11386516
119	0x3c1216d3	0.0089165745
120	0xbd821c88	-0.06353098
121	0x3d33ef63	0.04392947
122	0x3e0758b4	0.13217431
123	0xbdc6e70e	-0.09712039
124	0xbc8a9fc9	-0.016921895
125	0x3d3a8c24	0.045543805
126	0x3dd99d99	0.106257625
127	0xbdf60f18	-0.12014598
128	0xbde00ae5	-0.10939578
129	0x3da376a6	0.07981615
130	0xbe028e8c	-0.1274969
131	0xbdaed150	-0.08536017
132	0xbc4c453f	-0.012467681
133	0xbccab1a0	-0.024742901
134	0x3dbcd702	0.09220697
135	0x3def6452	0.116890565
136	0xbde8feec	-0.113767475
137	0xbc613923	-0.013746533
138	0xbbad79b1	-0.0052940478
139	0x3dc86418	0.09784716
140	0xbdf99da4	-0.12188271
141	0xbdd7c659	-0.10535879
142	0xbd8415d0	-0.06449473
143	0xbd64e37e	-0.055881016
144	0x3d4c4e52	0.04987938
145	0xbcf3effa	-0.029777516
146	0xbc9ea9df	-0.01936811
147	0x3de6b01b	0.11264058
148	0xbd780404	-0.060550705
149	0x3c3ad84f	0.011404111
150	0xbcc468dc	-0.023975782
151	0xbdd66087	-0.1046763
152	0x3dc4d1d6	0.096103355
153	0x3c98f385	0.018670807
154	0xbde93f93	-0.11389079
155	0x3e0c3bf3	0.13694744
156	0x3d8185f6	0.06324379
157	0xbdf5a79d	-0.1199486
158	0xbde26b03	-0.11055567
159	0x3db0cad0	0.086324334
160	0x3bc7f7c9	0.0061025363
161	0xbc8df77f	-0.01732993
162	0xbde2c7f1	-0.11073292
163	0x3dc5aace	0.09651719
164	0xbdc981ad	-0.09839187
165	0xbc9c252e	-0.019060697
166	0xbc95015d	-0.018189127
167	0x3dfed37e	0.12442683
168	0x3da65493	0.081216
169	0x3d30c2c1	0.04315448
170	0x3d2b7a85	0.04186489
171	0x3dd08063	0.10180738
172	0x3ccb9e1d	0.024855668
173	0x3d3383d7	0.043826904
174	0x3c9c6d33	0.019095039
175	0xbd52de2c	-0.05148141
176	0x3d0585c8	0.032598287
177	0x3ddce01e	0.107849345
178	0x3dc2a1dd	0.09503529
179	0xbca4c59e	-0.020113762
180	0x3df7c46f	0.120980136
181	0xbcfdaa3f	-0.030964969
182	0xbbbe8236	-0.005813862
183	0x3ded5a57	0.115894966
184	0x3d7a0bbb	0.061046343
185	0xbd91966d	-0.071087696
186	0x3d6d7179	0.057969544
187	0x3ded605a	0.11590643
188	0xbd04c4b5	-0.032414157
189	0xbd904021	-0.070434816
190	0xbde3c157	-0.11120861
191	0x3d8052cf	0.062657945
192	0xbcce3cd2	-0.025175486
193	0x3dc35618	0.095379055
194	0xbdd92a19	-0.106037326
195	0x3dca1bca	0.098685816
196	0xbdf8dbc5	-0.12151293
197	0xbdba23e6	-0.09088878
198	0xbd9db840	-0.077011585
199	0xbcc87868	-0.024471477
200	0x3da26d41	0.07930995
201	0x3dc4961b	0.09598943
202	0x3d933a6f	0.0718888
203	0x3d94db4f	0.07268392
204	0xbc785f78	-0.01515948
205	0xbcfa4f2c	-0.03055533
206	0x3b58563d	0.0033010386
207	0xbdcf0bb0	-0.10109651
208	0xbdf166b4	-0.11787167
209	0x3da519de	0.080615744
210	0x3df22758	0.118239105
211	0xbc8655d7	-0.016398354
212	0xbdb03f6e	-0.08605848
213	0x3d7f74c3	0.062367212
214	0xbcbcc6c7	-0.023044003
215	0xbc690a6a	-0.014223674
216	0xbd36e09f	-0.04464781
217	0xbd7a7562	-0.0611471
218	0x3d8d194f	0.06889593
219	0xbd80229e	-0.06256603
220	0x3c529f57	0.012855372
221	0x3d000ed8	0.031264156
222	0x3d8ee084	0.06976417
223	0x3c09f241	0.008419574
224	0x3dcca084	0.099915534
225	0xbdcb4a49	-0.09926278
226	0x3da8e2c8	0.0824638
227	0xbdf3dc4f	-0.11907255
228	0x3daffa78	0.08592695
229	0xbd8206d8	-0.063489616
230	0x3dd597b5	0.104293264
231	0xbdeaea3f	-0.1147046
232	0xbb80ecf3	-0.0039344965
233	0xbd9c9d73	-0.076472186
234	0xbd6026fe	-0.054724686
235	0x3df982e7	0.12183171
236	0xbe01685f	-0.1263747
237	0xbd0aac36	-0.03385564
238	0x3b8c5978	0.0042831264
239	0xbda832b0	-0.08212793
240	0xbdb17ed3	-0.08666768
241	0xbd11d87d	-0.03560685
242	0xbdbd2fdd	-0.09237645
243	0xbdb79abb	-0.08965059
244	0xbdbd8021	-0.09252954
245	0xbde9cfd9	-0.11416597
246	0x3d4dfe09	0.050291095
247	0x3da7ac84	0.081872016
248	0xbd816443	-0.063179515
249	0x3dfb7ac0	0.12279272
250	0xbceb2b21	-0.028707089
251	0x3da101cf	0.07861673
252	0xbdcc6851	-0.09980834
253	0xbe030666	-0.1279541
254	0xbd1a27e6	-0.037635706
255	0xbc275b00	-0.010214567

output_layer.0.weight f4 [64, 64]
0	0x3db43f08	0.08801085
1	0xbd43987b	-0.04775284
2	0x3cbf388d	0.023342395
3	0xbe00b8ff	-0.1257057
4	0xbd8737ec	-0.06602463
5	0xbdd4523a	-0.10367246
6	0xbd8c4fce	-0.06851159
7	0xbd1bd6f3	-0.03804679
8	0xbd2b83c0	-0.041873693
9	0x3d841bb0	0.064505935
10	0x3d8b8952	0.06813301
11	0xbd88444a	-0.0665365
12	0x3d1ef8c8	0.038811475
13	0xbc839ffa	-0.016067494
14	0x3dcf3c7a	0.10118957
15	0xbe02e62f	-0.1278312
16	0x3db5bb40	0.08873606
17	0x3c7dc762	0.015489431
18	0xbd892541	-0.06696559
19	0xbd896265	-0.067082204
20	0x3db5112e	0.088411674
21	0x3ddce61e	0.10786079
22	0xbc41137a	-0.011784429
23	0xbda508f9	-0.08058352
24	0x3d17e3e7	0.03708258
25	0x3d32f16f	0.04368728
26	0xbdb1ca0e	-0.08681117
27	0x3bfde477	0.0077481824
28	0xbb561b16	-0.0032669953
29	0x3d63aa18	0.055582136
30	0x3d1e1ceb	0.038601797
31	0xbdebb8de	-0.1150987
32	0x3b319cc3	0.0027101494
33	0xbe059288	-0.13044178
34	0xbcd1cc58	-0.025610134
35	0xbdc0f6b3	-0.09422054
36	0xbdcfe1f1	-0.10150517
37	0x3d89efba	0.06735177
38	0x3d04968d	0.03237014
39	0xbdd6fd20	-0.104974985
40	0xbc8f7b36	-0.017514806
41	0xbce26d0f	-0.027639894
42	0x3cb5d7c4	0.022197612
43	0xbd72c1c3	-0.059266817
44	0x3dc43df7	0.09582131
45	0x3db5a6ba	0.08869691
46	0xbcc6b6a5	-0.024257014
47	0xbd210a25	-0.039316315
48	0xbd35a59e	-0.044347398
49	0x3de79192	0.11307062
50	0x3daafc9e	0.08348964
51	0x3d8f72b0	0.07004297
52	0x3de39291	0.1111194
53	0xbd86f655	-0.06589953
54	0xbae89d5b	-0.0017747091
55	0xbdcba0b1	-0.09942759
56	0x3cf4e030	0.029892057
57	0xbc9a82e6	-0.018861245
58	0x3d669ca6	0.056301735
59	0xbd33a0a2	-0.043854363
60	0xbc11ca5e	-0.008898346
61	0x3dc35b90	0.095389485
62	0xbd7e2c8b	-0.0620542
63	0x3df47327	0.11936026
64	0xbdb24caa	-0.08706029
65	0xbcf9f788	-0.03051354
66	0x3db686b8	0.08912414
67	0xbd204fc8	-0.039138585
68	0x3d8dd100	0.06924629
69	0x3da9a494	0.08283344
70	0xbbfd8a80	-0.0077374578
71	0x3d70f284	0.05882503
72	0x3dc1da08	0.09465414
73	0x3daef0f2	0.085420504
74	0x3d89a142	0.067202106
75	0xbdaef5c2	-0.08542968
76	0xbd7f9150	-0.06239444
77	0x3dfbd354	0.12296167
78	0x3b31fc00	0.002715826
79	0xbdaf0f74	-0.08547869
80	0x3ac5c280	0.0015087873
81	0xbddb481c	-0.10707113
82	0xbd12ec4c	-0.03586988
83	0xbd33d6e8	-0.043906122
84	0x3d27d608	0.0409756
85	0x3de6b13e	0.11264275
86	0xbd8f3e86	-0.06994347
87	0xbdfd73c6	-0.12375598
88	0xbda6e64e	-0.08149396
89	0x3d6eaf0c	0.058272406
90	0x3d5b9518	0.053608984
91	0x3b8715c0	0.004122466
92	0x3dc8adc6	0.0979877
93	0x3bbaa660	0.005696103
94	0x3c8ebe40	0.017424703
95	0x3c268840	0.0101643205
96	0xbd240128	-0.040040165
97	0x3d8327fc	0.06404111
98	0x3dfa9754	0.12235895
99	0xbde4e498	-0.11176413
100	0xbd38fb08	-0.045161277
101	0x3d4dcf20	0.050246358
102	0x3ceec400	0.029146194
103	0xbdfb27d4	-0.12263456
104	0xbd87fdc4	-0.06640199
105	0xbd234230	-0.039858043
106	0x3d66ac44	0.05631663
107	0xbb214f40	-0.0024613887
108	0x3d87b18e	0.06625663
109	0xbcad1730	-0.02112922
110	0xbdfc2200	-0.123111725
111	0x3dad3770	0.084578395
112	0xbd4ca07c	-0.049957737
113	0xbceebb80	-0.029142141
114	0xbbb7a2a0	-0.005604103
115	0x3ce592b8	0.028024063
116	0xbd9540b2	-0.0728773
117	0xbcde4f30	-0.027137369
118	0x3d3d6bec	0.0462455
119	0xbd98105c	-0.07424995
120	0xbd994d30	-0.074854255
121	0x3d1ef638	0.03880903
122	0x3d028e00	0.031873703
123	0x3d6f96fc	0.0584936
124	0x3dba514a	0.09097536
125	0x3cdb1320	0.026742518
126	0xbdf74618	-0.12073916
127	0x3dccb77a	0.09995933
128	0xbd9932e2	-0.07480408
129	0xbdb24f5f	-0.08706545
130	0xbdf57c21	-0.11986566
131	0x3d5d0c48	0.05396679
132	0x3d3a8b1f	0.045542832
133	0xbd22a66a	-0.039709486
134	0x3d6be649	0.057592664
135	0x3dd2ad6f	0.10286986
136	0xbb4c837c	-0.00312063
137	0x3ba7098b	0.005097573
138	0xbd9abfca	-0.07556112
139	0xbdf2fe9e	-0.118649706
140	0xbd2cb503	-0.042164814
141	0x3c9b0f56	0.018928211
142	0xbca61991	-0.020275863
143	0xbdc63ee3	-0.096799634
144	0x3dd58069	0.10424883
145	0x3da9ee0c	0.08297357
146	0x3d400bb1	0.04688615
147	0xbd120456	-0.035648666
148	0x3dec4ff7	0.115386896
149	0xbd82adba	-0.06380792
150	0xbdd0cb6e	-0.10195051
151	0xbd93ed35	-0.07222978
152	0xbdf8b3f8	-0.12143701
153	0x3d28b729	0.0411903
154	0xbd8583f6	-0.0651931
155	0x3c9018f5	0.017590025
156	0x3bb33ccf	0.0054698954
157	0xbde5ea01	-0.11226273
158	0x3de052ad	0.10953269
159	0x3dc815a5	0.09769753
160	0x3d77d57b	0.060506325
161	0x3da5206d	0.08062825
162	0xbd937380	-0.07199764
163	0xbd5e010b	-0.054200213
164	0x3ddce221	0.10785318
165	0x3d5daf96	0.05412253
166	0x3db4511b	0.08804532
167	0x3de64fdd	0.112457015
168	0x3d167085	0.0367284
169	0x3c0023b4	0.007821012
170	0xbdf0287a	-0.1172647
171	0xbd2e802b	-0.0426027
172	0xbdad527a	-0.08462997
173	0x3d0ce7cd	0.03440075
174	0x3c129d59	0.008948647
175	0x3d132073	0.035919618
176	0x3dc472e3	0.095922254
177	0xbda65d72	-0.08123292
178	0x3dec6b49	0.115439005
179	0x3cd124e2	0.025530282
180	0x3dd39906	0.10331921
181	0x3d8e9106	0.06961255
182	0x3d4ca10b	0.04995827
183	0x3dd10d57	0.102076225
184	0xbd19bbba	-0.037532546
185	0x3d8bdc8f	0.068291776
186	0xbde02384	-0.10944274
187	0xbd56c7e8	-0.05243674
188	0x3cc1930f	0.023629693
189	0x3d1dde50	0.03854209
190	0x3dd9b2f1	0.106298335
191	0x3da6c5a0	0.08143163
192	0xbdc268dd	-0.09492657
193	0x3dfbf74f	0.1230303
194	0xbc9a34ca	-0.018824
195	0xbd5e0805	-0.054206867
196	0x3be7663b	0.0070617474
197	0xbd384595	-0.044988234
198	0x3dbd3fff	0.09240722
199	0xbde866b4	-0.11347714
200	0x3d2b9a55	0.04189523
201	0xbdd7a9f9	-0.105304666
202	0xbcb4e5a0	-0.02208215
203	0x3dac149e	0.0840237
204	0xbc56222a	-0.013069669
205	0xbd352afc	-0.044230446
206	0x3d9fe41b	0.078071795
207	0x3dd30e2e	0.10305439
208	0xbd7ddd04	-0.061978355
209	0xbdb3b58e	-0.08774863
210	0x3d46de62	0.048551925
211	0xbdf3a08e	-0.11895858
212	0xbd716f24	-0.058943883
213	0x3df9651d	0.12177489
214	0xbdc40b50	-0.0957247
215	0x3dc29df7	0.09502786
216	0xbdf3a7d6	-0.118972465
217	0x3d1f79e5	0.038934607
218	0xbd8c2f03	-0.06844904
219	0x3bc66c49	0.006055389
220	0xbd0c9e5c	-0.03433071
221	0x3c1c36e8	0.009534575
222	0xbd881f10	-0.0664655
223	0x3d3013ed	0.042987753
224	0x3dce3478	0.10068601
225	0xbda272e3	-0.07932069
226	0x3d1693d4	0.036762074
227	0x3de89c20	0.113579035
228	0x3c6a8da3	0.014315995
229	0xbd7b8e70	-0.061415136
230	0x3d31dacf	0.043421563
231	0x3df32499	0.11872215
232	0x3d859395	0.0652229
233	0xbddd859a	-0.10816498
234	0xbd9f8e5d	-0.077908255
235	0xbd912c30	-0.07088506
236	0x3d80a792	0.062819615
237	0x3ddd33f3	0.10800924
238	0xbcf227d6	-0.02956001
239	0x3d20fc15	0.039302904
240	0xbdbf8cd9	-0.093530364
241	0xbc049f65	-0.008094643
242	0x3d554221	0.05206502
243	0x3c69db8f	0.014273538
244	0xbdabed79	-0.08394904
245	0x3d873123	0.06601169
246	0x3d88d5c1	0.06681395
247	0x3cd8a249	0.026444571
248	0xbc6e7cdb	-0.014556135
249	0xbcdffae4	-0.027341314
250	0xbcb86ca9	-0.02251275
251	0x3dfd31a2	0.12362982
252	0x3d435ac4	0.047693983
253	0x3d67f818	0.056633085
254	0xbd93b5cd	-0.0721241
255	0xbd4c584a	-0.049888887

output_layer.0.bias f4 [64]
0	0x3ccc2bec	0.024923287
1	0xbdf0d542	-0.11759426
2	0xbdb35f5e	-0.08758424
3	0xbddcae3b	-0.10775419
4	0x3d33e5e6	0.04392042
5	0x3dbc644a	0.09198816
6	0x3dac782d	0.08421359
7	0x3ce1db6a	0.027570445
8	0x3da8f113	0.08249106
9	0xbddae5a9	-0.106883354
10	0x3dd614da	0.10453196
11	0x3c022e47	0.007945604
12	0x3b82014d	0.00396744
13	0x3cc7a64b	0.024371287
14	0xbd9d548f	-0.07682144
15	0x3c2dcad0	0.010607436
16	0x3db52c66	0.08846359
17	0x3dcc1bd5	0.09966246
18	0x3daa055b	0.08301803
19	0xbdb69457	-0.08915012
20	0xbdf7bb63	-0.12096288
21	0x3d81aeca	0.063321665
22	0x3dae2461	0.085030325
23	0x3ddb47d3	0.10707059
24	0xbdf73520	-0.1207068
25	0xbd683fc9	-0.056701455
26	0xbda8bcb8	-0.0823912
27	0x3b9edf8f	0.0048484276
28	0xbd82a1c7	-0.06378513
29	0xbdb40f15	-0.08791939
30	0xbd5c32ec	-0.0537595
31	0xba6ba845	-0.00089896127
32	0x3cd87e26	0.02642734
33	0xbd9f6c10	-0.07784283
34	0x3cc5b2d0	0.024133116
35	0x3c809a88	0.015698686
36	0x3c816a6a	0.015797812
37	0x3cfc6bd9	0.030813145
38	0xbc59f22a	-0.013302365
39	0xbdf19d9e	-0.11797641
40	0xbac4d701	-0.001501769
41	0x3d998f31	0.07498015
42	0xbcf9a69f	-0.030474959
43	0x3c476c41	0.012171806
44	0x3ccce5e6	0.025011968
45	0x3d155fb9	0.03646824
46	0x3da63505	0.081155814
47	0x3de56903	0.1120167
48	0x3dcd7ec9	0.10033948
49	0x3d5df629	0.054189835
50	0xba6e6c5d	-0.0009095127
51	0x3cd9ff1b	0.026610902
52	0x3d77f516	0.060536467
53	0x3c24bab3	0.010054278
54	0xbdafcda7	-0.08584147
55	0xbc31cb13	-0.010851639
56	0xbd6c99fb	-0.057764035
57	0x3d6d1cda	0.057888843
58	0xbde745bf	-0.112926
59	0x3d3564da	0.044285633
60	0xbd279e34	-0.04092236
61	0x3d78ca93	0.060740065
62	0xbc922dfd	-0.017844195
63	0x3d0fd172	0.035111852

output_layer.2.weight f4 [5, 64]
0	0x3ce14e96	0.027503293
1	0xbdca5676	-0.09879772
2	0x3cd88878	0.02643226
3	0xbc7ac95e	-0.015306799
4	0xbdf2e504	-0.118600875
5	0xbc9ecc0a	-0.019384403
6	0x3da74c9b	0.08168908
7	0x3ddc1b39	0.1074738
8	0xbdab4d46	-0.08364348
9	0x3d77cf24	0.06050028
10	0x3c901ce1	0.017591896
11	0x3d33f1c8	0.043931752
12	0xbd97fdcd	-0.074214555
13	0x3c15546c	0.009114366
14	0x3db66152	0.08905281
15	0x3dbbe07f	0.091736786
16	0x3d3f53b6	0.046710692
17	0xbd04ab3e	-0.03238987
18	0x3d36cf80	0.04463148
19	0x3975e634	0.00023450778
20	0x3dbb1ca9	0.09136326
21	0x3d15be47	0.036558416
22	0xbd8c513d	-0.068514325
23	0x3d9a3fa6	0.07531671
24	0xbd7a176d	-0.061057497
25	0x3d53a19f	0.051667806
26	0x3d1ad0e8	0.037796885
27	0xbd392420	-0.045200467
28	0xbc9e95fb	-0.019358626
29	0xbd281cac	-0.04104297
30	0xbdae90b0	-0.08523691
31	0xbd2b44a3	-0.041813504
32	0xbc9b6fbe	-0.018974181
33	0xbdd6abe9	-0.10482008
34	0x3db34694	0.08753696
35	0x3dd1956c	0.10233578
36	0xbd87d7b4	-0.06632939
37	0xbcaf0967	-0.021366788
38	0x3dba2cb5	0.090905584
39	0xbdb53d3b	-0.088495694
40	0xbd1a12aa	-0.037615456
41	0xbdaf2d1e	-0.08553527
42	0x3bb3327b	0.005468664
43	0x3d3350cb	0.043778222
44	0xbd483351	-0.048877064
45	0x3dcd1b15	0.10014931
46	0xbdacabee	-0.084312305
47	0xbd87750d	-0.066141225
48	0x3b75567f	0.003743559
49	0x3cf50e6b	0.029914102
50	0xbc73e418	-0.014885925
51	0xbddf8a24	-0.1091502
52	0x3d93a496	0.07209127
53	0x3db094e8	0.086221516
54	0x3de070a2	0.10958983
55	0x3d385aeb	0.04500858
56	0xbd9272ba	-0.071507886
57	0x3da27e7b	0.079342805
58	0x3d1bbd7d	0.038022507
59	0x3dce012c	0.10058817
60	0x3c8f0afb	0.01746129
61	0x3dd14b68	0.10219461
62	0xbc845c8d	-0.016157413
63	0xbd8931ae	-0.06698929
64	0x3cc461c1	0.023972394
65	0x3d941dc4	0.0723224
66	0xbdef1765	-0.11674384
67	0xbbd0142e	-0.006350062
68	0xbde2e4d9	-0.110788055
69	0xbd8e2ca5	-0.06942109
70	0xbd80bcba	-0.06285997
71	0xbbc8fae9	-0.0061334264
72	0x3d111d8f	0.03542858
73	0x3d704b0d	0.058665324
74	0xbd4fc230	-0.0507223
75	0x3d6c1127	0.057633545
76	0xbdc8b52d	-0.098001815
77	0xbd365c0f	-0.044521388
78	0xbd822435	-0.06354562
79	0xbd33c35e	-0.04388749
80	0x3bcc303c	0.006231336
81	0xbc916b3f	-0.017751334
82	0x3df5464e	0.119763
83	0x3d85dca1	0.06536222
84	0x3deaa4a0	0.11457181
85	0x3e06cfb0	0.13165164
86	0xbcafadcc	-0.021445177
87	0x3d3ad333	0.04561157
88	0x3df1acbe	0.11800526
89	0xb9153f6c	-0.00014233374
90	0x3db1454d	0.08655796
91	0xbdec3e7f	-0.11535358
92	0xbc002e06	-0.007823473
93	0xbceac20f	-0.028656987
94	0x3c029c14	0.007971782
95	0x3d5d07a2	0.053962357
96	0x3db2b5ce	0.08726083
97	0x3bf8ef7d	0.0075969086
98	0x3cea5235	0.028603652
99	0x3b5f2352	0.0034048152
100	0x3b9ef71a	0.004851234
101	0x3db4663f	0.088085644
102	0xbdc463d7	-0.095893554
103	0xbd9cc75a	-0.07655211
104	0x3cc8b55d	0.024500543
105	0xbd0a2396	-0.033725344
106	0x3d973eb6	0.07385008
107	0xbdbfaee2	-0.09359528
108	0x3db3c579	0.08777899
109	0xbdde98cd	-0.10868988
110	0xbdd09c41	-0.10186053
111	0xbc22561c	-0.009908225
112	0x3d8df45d	0.06931374
113	0x3da44a3c	0.080219716
114	0x3d14dbd3	0.036342453
115	0xbdd780a7	-0.10522585
116	0xbd9ce983	-0.07661726
117	0x3df997c7	0.12187152
118	0xbda910ae	-0.082551345
119	0xbdad2bfd	-0.08455656
120	0x3d519970	0.05117172
121	0x3df8c62b	0.121471725
122	0x3d963e6e	0.07336126
123	0x3dcf120a	0.101108626
124	0xbd6edd9f	-0.058316823
125	0xbde0b41c	-0.10971853
126	0xbab3a918	-0.001370701
127	0xbdb1aa86	-0.08675103
128	0xbd57fc04	-0.052730575
129	0x3d52ee8c	0.051497027
130	0x3d70c489	0.05878118
131	0x3dbe3c8b	0.092888914
132	0x3d9fff1d	0.07812331
133	0x3d548b9e	0.05189096
134	0xbcd0ac83	-0.025472885
135	0x3def599e	0.11687015
136	0x3d9317fa	0.071823075
137	0xbd595f9c	-0.053069696
138	0xbdb993ea	-0.090614155
139	0x3db6e2b0	0.08929956
140	0x3d8dda82	0.06926443
141	0xbdb06b13	-0.08614173
142	0xbda33331	-0.07968748
143	0xbd947bbf	-0.07250165
144	0xbd46bd94	-0.04852064
145	0x3dd203c9	0.10254628
146	0xbddc0490	-0.10743058
147	0xbdf274bd	-0.11838672
148	0xbdf66eee	-0.12032877
149	0xbdc4bc89	-0.09606273
150	0xbd22e713	-0.03977115
151	0x3d5e54dd	0.05428015
152	0x3dfd8670	0.123791575
153	0x3c5ed1ad	0.013599795
154	0xbdf230b9	-0.11825699
155	0x3c5bb4f6	0.013409844
156	0xbd209d60	-0.039212584
157	0xbdb7e6c8	-0.08979565
158	0xbddbf509	-0.10740096
159	0xbdd0246b	-0.10163196
160	0x3cd763c2	0.026292685
161	0xbd097f22	-0.03356851
162	0xbd293553	-0.04131062
163	0x3e00c6e3	0.1257587
164	0xbde6929f	-0.112584345
165	0x3dbcb120	0.092134714
166	0xbcec037a	-0.028810252
167	0x3dc6f9d4	0.0971562
168	0xbd4dd024	-0.050247326
169	0x3ce5f189	0.028069275
170	0xbddbfe32	-0.10741843
171	0xbd9ae989	-0.075640745
172	0x3c640c94	0.0139190145
173	0xbdf713ac	-0.12064299
174	0x3d1c6e4f	0.038191136
175	0x3de8fd10	0.11376393
176	0x39f002e8	0.00045778533
177	0x3de4ded3	0.11175313
178	0xbc9a93d8	-0.018869326
179	0xbd98f19b	-0.074679576
180	0x3cab1e00	0.020888329
181	0xbcc7811d	-0.024353558
182	0x3db38a78	0.08766645
183	0xbd884107	-0.06653028
184	0xbdd2f941	-0.10301448
185	0x3d2478a7	0.040154126
186	0x3cfc7f66	0.030822467
187	0x3e01f183	0.12689786
188	0xbd5f50ab	-0.05452029
189	0xbce931db	-0.028466156
190	0xba800d02	-0.0009769502
191	0xbdc06d0b	-0.09395798
192	0x3cfd7d56	0.030943554
193	0xbd963ad0	-0.07335436
194	0xbde7f3d5	-0.11325804
195	0x3cadfa2d	0.021237457
196	0x3c64c754	0.013963539
197	0xbd9eb5aa	-0.077494934
198	0xbdce58bd	-0.10075519
199	0x3dd20cb0	0.10256326
200	0xbc8ef3eb	-0.017450294
201	0x3cd2878f	0.025699405
202	0x3de5034a	0.11182268
203	0xbd5eb075	-0.0543675
204	0xbdd26f02	-0.10275079
205	0x3aaa3503	0.001298577
206	0xbd38259a	-0.044957735
207	0xbd1fc961	-0.03901041
208	0x3d0a77ea	0.033805765
209	0x3d0d69b0	0.03452462
210	0x3db044cf	0.08606874
211	0xbdcfbf45	-0.10143904
212	0xbdd80ffe	-0.10549925
213	0x3deff0ad	0.11715827
214	0xbcf8303f	-0.030296443
215	0xbdd99db8	-0.106257856
216	0xbd19cde6	-0.037549876
217	0x3d81d5d9	0.06339616
218	0x3de681b0	0.11255205
219	0x3d646489	0.05575994
220	0x3d243f8c	0.040099666
221	0xbdd67a42	-0.104725376
222	0x3c5905af	0.013245984
223	0x3dc69dd1	0.0969807
224	0x3db36660	0.08759761
225	0xbdb8367c	-0.08994767
226	0x3d6de22a	0.058077015
227	0xbcfe3c6b	-0.031034669
228	0x3c14b21e	0.00907567
229	0x3d5fa743	0.054602873
230	0x3caaf27b	0.020867577
231	0x3da0e3a1	0.07855917
232	0xbc6c5e37	-0.014426759
233	0x3bf7a4aa	0.0075574713
234	0x3dbc0faa	0.09182675
235	0xbdb7b142	-0.08969356
236	0x3c9938e1	0.01870388
237	0xbd14078a	-0.036140002
238	0x3c48b6a3	0.012250575
239	0x3d787012	0.060653754
240	0x3da3d4de	0.079995856
241	0x3cdce99b	0.02696686
242	0x3e0024c7	0.1251403
243	0x3d35353e	0.04424023
244	0xbdaa9f8d	-0.08331213
245	0x3d238991	0.039926115
246	0x3de58783	0.112074874
247	0xbc310d87	-0.010806448
248	0x3cdd5a93	0.027020728
249	0xbcd5f41e	-0.02611738
250	0x3c92155e	0.017832454
251	0x3de50103	0.111818336
252	0xbde66e65	-0.11251525
253	0xbd47874e	-0.04871302
254	0x3ddf67e2	0.10908486
255	0x3afa024d	0.0019074172

output_layer.2.bias f4 [5]
0	0xbcca0d75	-0.02466462
1	0xbd43280b	-0.04764561
2	0xbcca9d28	-0.024733141
3	0xbdaca011	-0.08428968
4	0xbd59f244	-0.053209558
