vae.pth (torch, 32656 bytes, 21 tensors)

encoder_lstm.weight_ih_l0 f4 [64, 1]
000000 4d ef 6e be 2b b3 27 3e 3c 97 f9 3d 1b 00 f1 3d
       -0.23333474 0.16376941 0.12187049 0.11767598
000010 b0 ec 96 3d 08 2e 67 be a7 38 58 3d fb b9 0c 3b
       0.07369363 -0.22576153 0.052788403 0.0021473158
000020 d9 a3 86 be 27 f3 14 3e 53 cb 96 3c dd 84 fc bd
       -0.2629688 0.1454588 0.0184075 -0.12330029
000030 ea 70 41 be 1d 53 2f 3c 00 ff 0a 3d 44 e9 69 be
       -0.1889073 0.010700968 0.033934593 -0.2284289
000040 c0 6b 84 be 4d 57 03 3d de 1d f9 3e cf 93 1b be
       -0.25863457 0.03206568 0.486556 -0.15193103
000050 76 c0 b3 3e 97 61 ba be 57 22 99 3d d7 37 77 be
       0.35107774 -0.3640258 0.07477253 -0.24142395
000060 ad 55 59 3d 63 45 53 3e 51 88 3f be f7 03 2f bd
       0.053060222 0.20631938 -0.18704344 -0.04272839
000070 e8 80 84 bc 18 d3 f0 3e c2 ad 18 3d 54 31 fd bd
       -0.016174749 0.47036052 0.037275083 -0.12362924
000080 4e db 2b bd 34 2e c8 bd 8d 59 5b be 47 b3 22 3e
       -0.041957192 -0.097744375 -0.2142088 0.15888701
000090 c6 cf 59 be 54 c8 f8 bd 94 60 f0 bd 8f d0 44 3b
       -0.21270666 -0.121475846 -0.11737171 0.0030031537
0000a0 c0 7b 9e 3d c7 14 0b bd 31 93 4e 3d 1a 1c e4 bd
       0.07738447 -0.03395536 0.05043334 -0.111381724
0000b0 b8 c2 2d be 6b 7a a4 bc cf a4 f7 bd 9b c2 6c be
       -0.1696881 -0.020077905 -0.120919816 -0.23121111
0000c0 a9 62 82 bc 97 d5 30 3d dc 25 5f 3e e8 32 1d 3e
       -0.015916185 0.043172445 0.21791786 0.1535145
0000d0 04 90 cf bd 6e 8d c6 bd da 9f 04 3e 84 73 68 be
       -0.10134891 -0.09694944 0.12951604 -0.22700316
0000e0 41 8d 7b 3e 6a e1 d4 3d 50 04 fe 3b 34 87 a4 3d
       0.24565603 0.10394557 0.007751979 0.080336004
0000f0 21 bd a5 3e 31 2e 92 3e e4 52 82 be eb 30 d7 bd
       0.32370856 0.28550866 -0.25453866 -0.10507377

encoder_lstm.weight_hh_l0 f4 [64, 16]
000000 47 ae 7a be f8 2b 81 3e a6 f0 91 3e 31 2a b0 3d
       -0.24480544 0.25228858 0.28503913 0.08601797
000010 80 94 54 3e d2 d9 ce bd fa 24 04 3e a7 84 ce 3d
       0.20759773 -0.1010014 0.1290473 0.10083895
000020 d4 a9 85 bb 90 dd ca 3d 43 94 84 3e 4f 8c 30 bd
       -0.004079083 0.09905541 0.25894365 -0.04310256
000030 48 04 2b be 4f cd ac bd b8 01 89 bd 39 b9 a9 bd
       -0.16700852 -0.08437597 -0.06689781 -0.082872815
000040 9a b1 30 be 96 8b 4d be cf 88 95 be bd 1a 94 3e
       -0.1725525 -0.20072779 -0.2920594 0.2892665
000050 a8 a5 76 be 37 af 28 bc bb 38 86 be 3f 4f 26 be
       -0.2408663 -0.010295681 -0.26215157 -0.16241167
000060 c9 94 c5 bc ab d3 94 be 6c 5c 8c 3e c0 9f 95 be
       -0.024118798 -0.2906774 0.27414262 -0.29223442
000070 4c 37 6a 3e fe ff b1 bc 57 29 c1 3c b4 ec 8c 3d
       0.22872657 -0.021728512 0.023579283 0.06881085
000080 97 bd 9c 3e e7 3d 40 3e f6 ae 8d bd de 3d d0 3e
       0.30613396 0.18773614 -0.06918137 0.406722
000090 09 39 94 be 58 53 fa bd 58 e0 a1 3d 49 0c 7a 3d
       -0.28949764 -0.12222928 0.07904118 0.061046872
0000a0 80 bb 4a be 29 59 fe 3b ea 70 1f bd 99 1b 9e be
       -0.19798088 0.0077620936 -0.038926043 -0.3088043
0000b0 11 91 4c 3d 8f 4d 02 3e e0 63 2f be b3 4b 3a bd
       0.049943034 0.12724899 -0.17127943 -0.04548235
0000c0 02 a1 d3 3d a5 54 8b bd de 73 84 be c1 9e 9c 3d
       0.10333444 -0.06803254 -0.2586965 0.076474674
0000d0 d5 f6 79 bd 5c be 84 bd 61 a2 4d be ac 3d 84 3e
       -0.061026413 -0.06481621 -0.20081474 0.25828302
0000e0 52 e0 1b bd 7c 8d e5 3b fa fc bc b9 8a 4a 42 bd
       -0.038055725 0.0070053916 -0.00036046637 -0.047434367
0000f0 07 b6 1d 3e 9d 66 a9 bd 3e 6d ae 3e 72 12 b9 3d
       0.15401469 -0.08271525 0.3406772 0.09036721
000100 7b 4f 6a 3d 18 ba 4d 3e 31 f3 c5 be 9b 57 ab bd
       0.057204705 0.2009052 -0.38662103 -0.08366319
000110 f9 48 a5 3b b1 a7 c0 3e ad 90 38 be a6 f0 e0 3d
       0.0050440994 0.37627938 -0.1802394 0.109834
000120 d6 f0 23 be 94 35 9c bd e4 2b 32 bd a2 1f 4f bb
       -0.1600984 -0.07627407 -0.04349889 -0.0031604548
000130 27 57 ca 3d bd 1b 58 be bb 9e a2 3b 6f 23 c8 3c
       0.09879904 -0.21104331 0.00496277 0.024430959
000140 f5 90 33 be 85 ea fd 3d 39 1b 41 bd a7 01 a7 bd
       -0.17535765 0.12398247 -0.047145102 -0.08154612
000150 c5 e8 8a 3d 38 74 9e 3e 84 44 9f bc 3d db 91 3d
       0.067826785 0.30948043 -0.01944185 0.071218945
000160 96 7d 0b be 42 5d b7 bd 4d c8 05 3e e4 f5 85 3e
       -0.13622126 -0.089533344 0.1306469 0.26164162
000170 22 a2 14 3d db 39 4c bd 77 3d 5d 3d 77 57 5c 3c
       0.036287434 -0.049859863 0.054013696 0.013448588
000180 02 e2 de bb 6a 63 f7 3d 51 2e 8e be 4a a3 08 3e
       -0.0068018446 0.120795086 -0.27769712 0.1334354
000190 b0 2c 43 3e 42 30 be bd 59 3d 94 be f2 a9 42 3e
       0.19060016 -0.09286548 -0.28953055 0.19010141
0001a0 85 df 8a 3c e7 30 51 3e 37 29 96 3d 1f 48 8c 3d
       0.016952286 0.20428811 0.0733208 0.068496935
0001b0 b4 55 19 3e 71 ac fe bd 14 75 22 bd 9a a8 5b bd
       0.149741 -0.12435234 -0.039662436 -0.053627588
0001c0 7d 96 9e be 0b ed 67 be db 30 0e 3e c0 a5 a3 be
       -0.30974188 -0.22649018 0.13885824 -0.31962395
0001d0 89 ac ea bd 25 66 03 3e d7 d6 86 3d d2 31 74 3d
       -0.1145869 0.12831934 0.06583946 0.059617825
0001e0 f0 b0 2f 3e b4 e7 04 be c8 0a 2a be 39 67 8b 3e
       0.1715734 -0.12979013 -0.16605675 0.2722719
0001f0 c3 5a 65 3b e0 cb 44 3d a6 d5 05 3c 9a 3e a8 bd
       0.0034996725 0.048045993 0.008168614 -0.08215065
000200 31 f2 dd 3d c5 6c 34 be 1c 8d 09 be 6b 2e 52 3e
       0.1083721 -0.17619617 -0.13432735 0.2052552
000210 85 c4 6a be 4c a2 94 3e 27 95 5b bc 17 d0 2a be
       -0.22926529 0.29030073 -0.01340226 -0.16680942
000220 12 c7 5e be c4 89 19 be b1 79 da bd 7d f1 48 3e
       -0.21755627 -0.1499396 -0.10667742 0.1962337
000230 a9 97 e5 3c e6 c5 85 be a0 93 19 3e c5 25 c9 bc
       0.028026419 -0.26127547 0.1499772 -0.024554143
000240 f7 e7 97 3d 8a dd 8f 3d 1a 9e 0d be 6d b0 33 be
       0.07417291 0.07024677 -0.13829842 -0.1754777
000250 4d 3f 9b bd 0c 94 38 3d 3f 50 5a be 8d ce 86 3e
       -0.07580433 0.045063064 -0.21319674 0.2632946
000260 fe 52 8f be ae 78 81 be 1c 58 0b bd c5 45 25 3e
       -0.27993006 -0.25287384 -0.034019575 0.16139896
000270 50 37 0c 3e ef f0 bc bc 2d 16 ac 3e c3 83 4b 3d
       0.13692975 -0.023064105 0.3361067 0.049686205
000280 41 6c 4d be 08 f8 26 be e4 e5 38 be 5f 30 4f 3e
       -0.20060827 -0.16305554 -0.18056446 0.20233296
000290 1a 3d b1 3c 5d fe 5f 3e 7e c9 64 3d fb 56 82 3e
       0.02163558 0.21874376 0.05585622 0.25456986
0002a0 96 6a 1b 3e 2c a1 a9 bd 2a f4 77 be 0f 99 a4 bb
       0.15177378 -0.08282694 -0.24214235 -0.005023129
0002b0 de f2 db bd 3b d8 79 be f4 8d 81 3e a3 91 b5 bc
       -0.107396826 -0.24398892 0.25303614 -0.022164172
0002c0 3d 5f 43 3d b5 6a 70 be 19 c0 ad bd 9e 74 2d 3e
       0.04769825 -0.23478206 -0.08483905 0.16939017
0002d0 4d f0 06 be 42 aa 0c bd 84 9b 0b be d1 e7 d8 3d
       -0.13177605 -0.034342058 -0.13633543 0.105910905
0002e0 70 21 2c 3e 20 af a2 3d e2 60 24 be bf 95 39 bc
       0.1680963 0.07943559 -0.16052583 -0.011327206
0002f0 cd e3 2b be 7f 74 19 3e 2f 57 bc 3d d6 b2 18 3e
       -0.16786118 0.14985846 0.091963165 0.1491197
000300 19 f4 6b bd d9 d8 cc 3d 34 8c c7 bd ab e5 1c bd
       -0.057605837 0.10002298 -0.097435385 -0.038304966
000310 3d f5 4d bd 10 8c 58 be dc 1b 1c be 42 00 0e bc
       -0.050282706 -0.2114718 -0.15245003 -0.008667054
000320 17 4c 06 be 6d bf a1 3d 5d 2c 98 be 10 71 ac bd
       -0.13114963 0.0789784 -0.29721346 -0.084200025
000330 4e d9 2d 3e 95 9b 12 bc 3c 84 2c 3e 8b 36 00 3e
       0.16977426 -0.008948226 0.16847318 0.12520806
000340 57 ca af bd 28 6f 16 be 46 55 77 bd 7b 1b 5f bd
       -0.08583515 -0.1469084 -0.060384057 -0.054469567
000350 e1 a2 ae bd 95 ed a9 bd e7 2d e3 3d 2a c0 a0 3c
       -0.085271604 -0.08297268 0.110927396 0.019622881
000360 7b df 2b 3d 6d 98 5c 3d 28 d8 f0 bd a8 aa b9 bd
       0.041961174 0.053856302 -0.117599785 -0.09065753
000370 08 11 ef 3c cc 84 0a bd 95 5b 2d be eb 6e 90 3d
       0.029182926 -0.03381805 -0.16929467 0.07052406
000380 4b 53 f0 3d e7 21 57 be 03 45 54 be be 3b 7d bd
       0.11734637 -0.21009026 -0.20729451 -0.061824553
000390 9b da ab 3d ff f5 c9 3e 12 71 61 be e1 b0 5c bd
       0.08391305 0.39445493 -0.22015789 -0.053879622
0003a0 23 a9 03 bd 22 b9 4f 3e c3 12 1e 3e 0d b6 46 3e
       -0.032143723 0.20285466 0.15436845 0.19405384
0003b0 0d 0b a6 3d 23 de dd 3d 7d 02 41 3e c7 9f a1 3e
       0.081075765 0.10833385 0.18848605 0.31567213
0003c0 0e 1f 97 be 95 37 08 3e 2f 7b 97 3c d7 50 7c bc
       -0.2951588 0.13302453 0.018491356 -0.015400133
0003d0 9f af 19 bd 35 ad 31 3e 09 98 00 be d9 38 11 3e
       -0.037521 0.1735123 -0.12557997 0.14181842
0003e0 af 7a 93 be ff 2e a7 3e 53 ec 5a 3e bb 5b 09 be
       -0.28804538 0.32653043 0.21379213 -0.13413899
0003f0 bd b3 dc bc c4 a7 77 3d 26 ae b9 3d d9 36 61 3e
       -0.026941175 0.06046273 0.09066419 0.21993579

encoder_lstm.bias_ih_l0 f4 [64]
000000 81 ce d4 3c bf c2 70 bc 08 c8 de 3d 30 11 ac 3d
       0.025977375 -0.014694869 0.10877997 0.08401716
000010 3b 6a 9e 3d 29 8d 4a be 31 f5 de bd df b0 5c be
       0.077351056 -0.19780411 -0.1088661 -0.21551846
000020 f1 da 83 bd 70 88 20 3d 4a 1d bc b8 9d e3 b4 3b
       -0.06438244 0.039192617 -8.969994e-05 0.0055202977
000030 0b 0d 3d 3e 67 af d6 3d 71 dd 24 3e 9b 10 d2 3c
       0.18462007 0.10482674 0.16100098 0.025642684
000040 38 7a 1a 3d f6 76 12 bd 9b 64 26 be 14 40 af 3e
       0.037714213 -0.03575798 -0.16249315 0.34228575
000050 0d 47 9e 3d 5b e3 45 3d 51 28 05 be 0c aa 67 3e
       0.077283956 0.048312526 -0.1300366 0.22623461
000060 3c 8d e4 ba 13 ea 39 3e d3 d0 de bd 36 e1 2e 3d
       -0.0017437111 0.18155698 -0.10879674 0.042695247
000070 e8 92 4a be 2c 42 fb bd 1b 49 1b 3d e3 a6 2d bc
       -0.19782603 -0.12268481 0.037911516 -0.010598871
000080 8b 36 12 bd b6 33 f9 bd 66 a0 2d 3e e0 34 d3 3d
       -0.035696547 -0.12168066 0.16955718 0.103128195
000090 a1 39 69 bd d3 68 5d be 05 6e 75 be bf f2 e4 b9
       -0.056939725 -0.21622019 -0.2396775 -0.0004366841
0000a0 0c bd da 3d 97 da b2 3d d1 92 25 3e 93 da b6 3b
       0.10680589 0.08733099 0.16169287 0.0055802553
0000b0 87 d4 ab 3d 0c 42 ea 3d c8 8a bb bd 27 54 68 3d
       0.08390146 0.11438379 -0.0915733 0.05672088
0000c0 de b0 21 3d fa 74 87 3e 82 79 45 3e e8 4e 57 3e
       0.039475314 0.26456434 0.19284633 0.21026194
0000d0 ab 37 fe bc af 69 14 3e 87 17 d8 bc 00 45 f2 bd
       -0.031032404 0.1449344 -0.026378406 -0.11829567
0000e0 f7 51 ee 3d 13 83 5b 3d c0 db 4f 3c dc e8 49 3e
       0.11636727 0.0535918 0.01268667 0.19717735
0000f0 d0 27 44 be e1 f9 d0 3a 15 21 21 be cf 0a 13 be
       -0.19155812 0.001594361 -0.15735276 -0.14359592

encoder_lstm.bias_hh_l0 f4 [64]
000000 ac 1e 70 3d f3 30 0f 3e 91 15 d3 bd 91 19 76 3e
       0.058623 0.13983516 -0.10306848 0.2403319
000010 f6 8e 89 bd e9 45 b7 bd 29 98 93 bd df 9f 7c bc
       -0.06716721 -0.08948881 -0.072067566 -0.015418976
000020 2e 9c d9 bd a5 98 32 3e d2 a1 3d 3e fd c3 66 3e
       -0.10625492 0.17441042 0.18518761 0.22535701
000030 06 5a 12 3e 4e 16 02 be 4e 61 95 3d 68 99 95 3e
       0.14292154 -0.12703821 0.0729395 0.29218602
000040 45 e4 20 be c6 8c 8d 3e 9a 2e 90 3d 16 9b 9f 3e
       -0.15712078 0.27646464 0.070401385 0.3117301
000050 5a 4b f4 3d ec 41 24 3e 3e 0d 53 3e d2 17 05 be
       0.11928435 0.16040772 0.2061052 -0.12997368
000060 0f d3 90 3e 44 19 21 3e 20 d5 28 be 63 5a 94 3d
       0.28286025 0.15732294 -0.1648755 0.072438024
000070 b9 83 31 3e d5 0a f4 bd c0 5f 4a 3e 84 da 02 be
       0.17335404 -0.119161285 0.19763088 -0.1277867
000080 04 0a 17 be e5 f3 33 be 16 5c 14 be f8 f4 bf bd
       -0.14749914 -0.17573507 -0.14488253 -0.09372896
000090 6c ad 96 bd d2 24 68 3e 4e e5 82 bd 74 1f 2f 3e
       -0.07357296 0.22670296 -0.06391393 0.17101842
0000a0 97 21 53 be 83 62 ec bc a2 b5 2c 3c ce 3b 83 bd
       -0.20618282 -0.028855568 0.0105413515 -0.06407891
0000b0 de 3f 7d 3c 50 fc 22 be 01 1f 67 3e bd d4 22 bc
       0.015457122 -0.15916562 0.22570421 -0.009938416
0000c0 c1 db 25 be f0 16 26 3e 40 40 2f be b1 f7 96 3e
       -0.1619711 0.16219687 -0.17114353 0.2948585
0000d0 4a c5 10 be 90 02 93 3d 96 fe 34 3e 4e 23 aa bd
       -0.1413776 0.07178223 0.17675242 -0.08307515
0000e0 89 be 56 3c 4d b7 9b 3e cb 0a c8 bd 5a 6a 98 3e
       0.013106951 0.30413285 -0.097676836 0.2976864
0000f0 bc 90 6b be 32 7b 12 bd 34 5f 8e 3e 9b 68 7d bd
       -0.2300443 -0.03576202 0.2780701 -0.061867338

encoder_lstm.weight_ih_l1 f4 [64, 16]
000000 1e 3d ac bc 08 6f 3d be 4a 4e e8 bd 99 8b 5d bd
       -0.021025237 -0.18499386 -0.113430575 -0.05408821
000010 21 1a 20 be b8 52 06 3d e2 b8 08 be 32 b4 75 bd
       -0.15634967 0.03279373 -0.13351777 -0.0599863
000020 54 6a 74 be 93 50 f7 bd 85 83 67 be 63 69 33 3c
       -0.23868686 -0.12075915 -0.22608764 0.010950419
000030 36 25 7b 3e 89 de cb bb dc e1 57 3e 6c e8 6b be
       0.24525914 -0.0062215966 0.21082252 -0.2303788
000040 70 73 80 be 69 cf 49 be 99 cc 82 be 16 9a ad bb
       -0.25088072 -0.19708027 -0.2554672 -0.0052979095
000050 59 1c b5 bd 12 09 25 3e e2 a1 7a 3e 0d 84 93 3e
       -0.088432975 0.16116741 0.24475816 0.28811684
000060 4f 01 6c 3d 53 23 54 be c9 87 94 3e 95 49 82 be
       0.057618435 -0.207166 0.29009846 -0.25446764
000070 58 63 9b 3d da 9c 22 be ce f1 67 3d a9 d3 2f 3e
       0.07587308 -0.15880147 0.056627087 0.17170586
000080 fd f1 a3 bc b4 d7 a0 be 5e b0 af bd cc 04 8f be
       -0.02001285 -0.31414568 -0.08578561 -0.27933347
000090 25 a7 6a be 75 9e 92 bc bd 91 49 bd d0 de ba bc
       -0.22915323 -0.017897824 -0.049211252 -0.022811323
0000a0 db ea 89 3d dd 8d 19 3d ee fd 25 be d0 ca b1 ba
       0.06734248 0.037488807 -0.16210148 -0.0013564471
0000b0 de 06 14 be 55 24 b0 bd 22 8c dc 3c 9d 91 13 3d
       -0.14455745 -0.0860068 0.02692229 0.03602754
0000c0 08 b2 64 bd c7 c9 20 be 94 54 bd be cf 7a 57 3e
       -0.055833846 -0.15701972 -0.3697859 0.21042942
0000d0 61 e7 1e be 97 20 b4 bc e1 2e 59 3e 0e 98 c5 bd
       -0.15517952 -0.021988196 0.21209289 -0.09648143
0000e0 bb ce c8 3d 47 7c 7c bd 44 ea 0a be 16 cf 22 3e
       0.09805056 -0.061641958 -0.13565928 0.1589931
0000f0 95 d3 62 3e 01 cf 04 be db 91 11 3e 3c 6a 97 3e
       0.22151025 -0.1296959 0.14215796 0.29573238
000100 78 6e b9 be 64 fd bd bd 59 e7 5d be 66 04 cc bd
       -0.36217093 -0.09276846 -0.21670283 -0.099617764
000110 23 52 7a be 3f e4 a6 3e fd d4 3f be 5f 30 d1 3d
       -0.24445395 0.32596013 -0.18733592 0.10214304
000120 ab b2 28 3e 95 7d 19 be 3f 2c 46 be 54 3f 07 3e
       0.16474406 -0.14989312 -0.19352816 0.13207752
000130 76 4d 7c be 08 3c a4 bd 44 61 8e 3e 41 fb 3b be
       -0.24638924 -0.080192626 0.27808583 -0.18357565
000140 81 ca b9 3d a3 34 81 3e 0d 4e e7 3d aa 2e 4e be
       0.09071828 0.2523547 0.11294184 -0.20134988
000150 ac 59 8b bd 92 78 a5 3c 2b 23 66 3e ac 33 91 3d
       -0.06804213 0.020199094 0.22474353 0.07089934
000160 8c 46 2b 3e c2 f4 b8 bc d8 6c a4 3d 83 d8 7e 3e
       0.1672613 -0.022577647 0.08028573 0.2488728
000170 3e 93 1d 3e c0 4a a2 be 76 f5 0b 3e 80 d7 9c 3e
       0.153882 -0.31697655 0.13667855 0.30633163
000180 14 af 2e be 63 9b fc bd 22 d4 0e be 8d 5d 62 bd
       -0.17058975 -0.12334325 -0.1394811 -0.055265
000190 fd 67 98 bd 93 8e 47 be 38 b5 18 3c 2a 85 79 3e
       -0.07441709 -0.19487981 0.00932055 0.24367204
0001a0 ef 8a f1 bc 07 f7 d5 be ba ce bc bd 13 91 e9 be
       -0.029485194 -0.4179003 -0.092191175 -0.45618495
0001b0 75 56 2f 3e f5 34 b4 bc dd 19 60 bd 80 38 11 be
       0.17122824 -0.021997908 -0.054712165 -0.1418171
0001c0 1a fb 6b be ac f8 3e 3c d7 d4 b3 bd 78 1e 02 be
       -0.23045006 0.011655968 -0.0878083 -0.12706935
0001d0 d6 7c 98 bd e1 1a 5a 3e 5e bc a6 bc 4c fb fa 3d
       -0.074456856 0.21299316 -0.020353492 0.12254962
0001e0 94 0b f8 bd 8b 10 b5 3e e9 34 37 3d 55 dd 79 3e
       -0.12111583 0.35364184 0.044728193 0.24400838
0001f0 99 b1 ca 3d 9e d0 3d be 14 dd 70 bd ab b3 d9 3e
       0.09897155 -0.18536612 -0.058804587 0.42519888
000200 89 19 ac be 90 62 9e 3d 21 71 67 be 3e fb a1 bd
       -0.33613232 0.07733643 -0.22601749 -0.07909249
000210 e4 88 32 3e b1 d5 9c 3e 35 b3 4d be ab 89 d1 3c
       0.17435032 0.30631784 -0.20087893 0.02557834
000220 a4 38 10 3c 19 35 9d 3c 70 2f 68 be dd 0a eb bc
       0.008802567 0.019190358 -0.22674346 -0.028691703
000230 1c 45 a7 bb 27 60 82 be 13 4b 3e 3e cf c0 9a 3d
       -0.005104674 -0.25463983 0.18583326 0.075563066
000240 ad 43 c6 3d 37 0d 05 3d 7e 8d 78 3a 5d e5 f2 3c
       0.09680877 0.032483306 0.0009481533 0.029650385
000250 8f 52 cc 3d 70 d9 c5 3c 06 3e b3 bc 7c 71 73 3e
       0.09976684 0.024151534 -0.021880161 0.2377376
000260 cc 10 85 bd 53 e6 5c 3b 40 fd 09 3e af 87 15 be
       -0.064973444 0.003370662 0.13475513 -0.1460254
000270 79 41 58 bd ce b5 9f be 34 4c cc bc 96 e9 12 3e
       -0.052796815 -0.31193393 -0.02493868 0.14346918
000280 ec 9d 95 bc 86 b4 08 3e 36 c2 95 3e 14 0e 91 be
       -0.01826378 0.13350114 0.29249734 -0.28331053
000290 ff 92 0d 3e f7 d4 89 3e 4e af fe bc ad cf bb 3e
       0.13825606 0.26920292 -0.031089451 0.36681882
0002a0 95 0a dc bd 36 2d 0c 3e 03 08 af 3e 38 a5 af 3d
       -0.10744206 0.13689122 0.341858 0.08576435
0002b0 4f 20 e2 bd 10 81 c5 bc e0 84 37 be 25 78 1f 3e
       -0.110413186 -0.024109393 -0.17921782 0.15573175
0002c0 65 2c 5e bd c3 f8 a0 bd a1 4b eb bc 11 2a ce bd
       -0.054241557 -0.078599475 -0.028722586 -0.10066617
0002d0 3c ed bf 3d 4d 34 85 bc 65 22 fc bc 93 62 99 bd
       0.09371421 -0.01626029 -0.03077812 -0.07489505
0002e0 2c c1 23 be 31 41 4a bd bd 7e 31 be 12 04 c2 bd
       -0.15991658 -0.049378578 -0.17333503 -0.094734326
0002f0 88 bc 50 3d b1 8d 8c bd e4 f6 49 3e 6b c5 88 3e
       0.050961047 -0.06862963 0.19723088 0.26713118
000300 e7 12 cb bd cc ce 22 3e cc 94 24 bb 45 1d 8d 3e
       -0.09915715 0.15899199 -0.0025113104 0.27561393
000310 73 58 59 bc 35 b9 31 bd 6b c1 89 be 95 d6 58 3d
       -0.013265717 -0.043389518 -0.2690538 0.052939016
000320 07 63 be bd 4e e8 fc bd b0 ca 84 3c 5c 11 62 bd
       -0.09296232 -0.12348996 0.01620993 -0.055192336
000330 86 be cf bd ff b1 b9 bd 5b b7 2d be 4e 76 25 bd
       -0.10143761 -0.09067153 -0.16964476 -0.040396027
000340 75 76 d3 bd a2 e0 83 be b2 04 8d bd 57 d3 c5 3d
       -0.10325328 -0.2575732 -0.06885661 0.096594505
000350 51 7e 56 be 30 23 0c bd e2 47 49 be 88 33 e2 3d
       -0.20946623 -0.034213245 -0.19656327 0.11044985
000360 7f e0 c6 bc 80 63 62 3d fa e7 c3 bd 4c 8c 80 be
       -0.02427697 0.05527067 -0.095657304 -0.25107038
000370 a7 aa d0 3d b8 db 0f be e6 7f 51 bd a4 e4 55 3d
       0.10188799 -0.1404866 -0.051147364 0.05222
000380 37 fb 8f bc bd 0b 3d 3e e2 f1 20 be b9 2c 8c be
       -0.017575843 0.18461509 -0.15717271 -0.2737787
000390 aa 4a de bd bc 1b 63 3e 3a ec 0a 3b 29 f2 9b 3e
       -0.10854085 0.22178549 0.002119793 0.3045819
0003a0 97 87 a1 bd 87 b5 30 3e 45 b9 49 3e 14 5c 03 bd
       -0.0788719 0.17256747 0.19699581 -0.032070234
0003b0 c2 f1 6d 3e aa 5c 14 3e 67 24 0f 3d aa e8 9a 3e
       0.23236755 0.14488474 0.034946825 0.30255634
0003c0 44 59 97 3e bc bf 86 be ed aa 12 bc 16 a3 f2 bd
       0.29560292 -0.26318157 -0.008951885 -0.118475124
0003d0 68 46 b8 3d 3b 70 a5 3d 37 ef a8 3c 34 7f 84 be
       0.08997804 0.08078047 0.020621879 -0.25878298
0003e0 a8 47 36 be 58 36 25 bd 74 ca 4c bd a6 04 02 be
       -0.17800772 -0.04033503 -0.04999776 -0.12697086
0003f0 d0 db e7 bd 60 37 20 3e e9 c2 98 bc 9a 2e 51 be
       -0.11321223 0.15646124 -0.018647628 -0.20427933

encoder_lstm.weight_hh_l1 f4 [64, 16]
000000 0c f3 3d be dc b6 33 3d e8 84 83 3d e3 2b 1b be
       -0.18549746 0.04387556 0.06421834 -0.1515346
000010 c0 8b 8c be 2e 65 26 3e e7 f1 9a 3e ba 19 3a be
       -0.2745037 0.16249534 0.30262682 -0.18173876
000020 67 32 b8 bc c0 27 4b 3e 28 ef 1e 3e c1 0a 4e be
       -0.022484971 0.19839382 0.15520918 -0.2012129
000030 04 e0 0e be 73 f1 5c be f4 2c 1a be 87 84 eb bd
       -0.13952643 -0.2157648 -0.15056211 -0.11499887
000040 58 8f 14 3e 24 1c ad 3d 7a 8a c1 bd ba b9 42 3e
       0.14507806 0.08452633 -0.094502404 0.19016162
000050 35 f8 06 bd a0 c0 80 3c 11 09 f0 bb 4c 07 fe bb
       -0.032951552 0.01571685 -0.0073252995 -0.0077523347
000060 74 7e 10 be a1 41 39 3e 1c 36 0e 3d be 57 7f be
       -0.14110738 0.18091442 0.03471957 -0.24935815
000070 37 42 bd 3b da 96 59 bd 64 52 bb bd b1 65 62 be
       0.0057757157 -0.05312238 -0.09146574 -0.22109105
000080 19 5b 40 be fa c9 a3 3d d6 3b aa be 46 97 1e be
       -0.18784751 0.07997508 -0.33248776 -0.15487394
000090 ee 53 fd bd b1 a3 28 3e 58 cf 1c 3e 13 b6 7c be
       -0.12369524 0.16468693 0.1531347 -0.24678831
0000a0 1f 4b 56 3e ac 60 0c 3e ef 38 bc 3e 5b 79 63 bd
       0.20927094 0.13708752 0.36762187 -0.055535655
0000b0 fd dd d3 bb 79 2f 19 be f9 81 1b 3e 65 12 98 bc
       -0.006465672 -0.14959516 0.151863 -0.018563459
0000c0 ed 40 13 3e d8 a7 65 3c 5e 77 98 3d a3 59 02 bd
       0.14380236 0.014017068 0.074446425 -0.031823765
0000d0 8a 9d 3a be 28 79 60 3e f7 c8 25 3e 58 a5 57 bc
       -0.18224159 0.21921217 0.16189943 -0.01316198
0000e0 4a 0e 2f 3e 5e 78 10 3d 0d 1e 69 bb 01 0b a8 3d
       0.17095295 0.03527104 -0.003557089 0.08205224
0000f0 a3 b8 83 3d 2b 67 87 3e 09 98 71 3e 29 dc cf 3c
       0.06431701 0.26445898 0.23593153 0.025373535
000100 50 9c ff bd f4 11 88 bc b1 00 5a 3d b9 a8 43 3d
       -0.12480986 -0.016610123 0.053223316 0.04776833
000110 ee 71 b5 3d ff 34 f8 3d 4a 5c c4 3d 37 49 9e be
       0.08859621 0.12119483 0.09587915 -0.30915233
000120 4e 9f 31 3e fa a0 24 bc 3b 96 a0 3e 2f 26 8a be
       0.17345926 -0.010048145 0.31364617 -0.26982257
000130 6e 94 78 3e 2d 4d 8d 3e ec 2d 60 bd 18 f2 06 3e
       0.24275371 0.27597943 -0.054731295 0.13178289
000140 f4 37 1e be 01 ba ed bd e4 40 0f 3d 17 f7 52 3e
       -0.15451032 -0.11607743 0.034973994 0.2060207
000150 75 98 50 3d 2b 1b a7 bd 75 c5 02 be 3e 08 30 3e
       0.050926644 -0.08159479 -0.12770636 0.17190644
000160 fa 90 48 3d c2 02 0d be e2 fe 21 3d b9 8a 1a 3e
       0.048966385 -0.13770583 0.039549716 0.15091981
000170 99 ca 18 3e 70 0c 2c 3e 10 df 5e be 38 b6 7b be
       0.14921035 0.1680162 -0.21764779 -0.2458123
000180 e6 01 ff 3d 3f 09 13 3d 27 6b 2d be 30 e8 a0 be
       0.12451534 0.03589749 -0.16935407 -0.31427145
000190 60 cd 82 be a6 9f 44 3d 97 f6 ac bd a4 a2 f8 3d
       -0.25547314 0.048003815 -0.08445471 0.12140396
0001a0 18 05 0d 3e e3 db 94 be af 88 c2 bc 92 bc a6 be
       0.13771474 -0.2907401 -0.023746816 -0.32565743
0001b0 3f 1f 17 be 94 2c 9f bd 5d 15 61 3e b9 3b 7f be
       -0.14758013 -0.077721745 0.21980806 -0.24925126
0001c0 50 a0 84 3e c6 31 b9 be 93 10 88 3d 03 da c9 bd
       0.2590356 -0.36170787 0.06643786 -0.098560356
0001d0 3a 60 72 bc fb dc 34 bd 78 f0 40 be 07 c3 01 3d
       -0.01479345 -0.044156056 -0.18841732 0.031680133
0001e0 cb fa d1 3e 9d ee 93 3d 16 0f 2a 3d 49 e8 13 be
       0.41011652 0.07223246 0.041518293 -0.14444079
0001f0 9d 60 41 3e 14 7c 6c bd a1 f6 2e 3d d1 0f c8 3c
       0.18884511 -0.057735518 0.042715672 0.024421604
000200 3c 06 8c bd d9 eb 6b bd 80 42 c1 3d 24 77 27 bd
       -0.068371266 -0.05759797 0.09436512 -0.040885106
000210 34 29 27 be fa 9f f7 bc cd 29 4b 3d a5 74 8c 3d
       -0.16324311 -0.03022765 0.04960041 0.06858186
000220 09 99 74 3e e1 cc 34 3e 4d 98 8e 3d dc 5d 30 bb
       0.23886503 0.1765628 0.06962643 -0.0026911413
000230 9e ad 6e 3e 65 c7 f1 3c a0 90 d2 3d c8 d5 66 be
       0.23308417 0.029514024 0.10281491 -0.22542489
000240 31 5b 20 3e 1c 19 97 3e 42 3c 4d be b5 ab 0b 3e
       0.15659787 0.29511344 -0.20042518 0.1363972
000250 4e 7f 95 bd 0f b5 21 3e ae 0d 34 3e 82 0f ab bc
       -0.07299672 0.15791725 0.17583343 -0.020881418
000260 27 77 b0 3c e8 90 cb bd c5 15 35 3e 13 e4 24 bd
       0.021541191 -0.09939748 0.17684086 -0.04025657
000270 5e 53 a2 3e 4f 01 7d 3e 85 b9 df 3d 15 c4 10 be
       0.3170423 0.2470753 0.10924057 -0.141373
000280 3c 80 8f be b0 8d 78 be 29 fb 69 bd e0 30 23 bb
       -0.28027523 -0.242728 -0.05712429 -0.0024900958
000290 f0 ce 83 3e b3 2a 85 3e 9f 0b c1 3c 76 bc fa 3d
       0.25743818 0.2600914 0.023565112 0.12242977
0002a0 f4 26 a8 3e 16 ff fd 3d ca ab 7d bd 4e ed 75 be
       0.3284222 0.124021694 -0.06193141 -0.24016306
0002b0 80 6c 32 3e f4 d6 bb 3e 94 57 92 bd 24 7f 19 3d
       0.17424202 0.36687434 -0.071456105 0.037474766
0002c0 79 4d fa bd db 53 86 3e 88 fd 09 3e 6c 03 01 3e
       -0.12221808 0.26235852 0.13475621 0.12598962
0002d0 8e 8e 3f be a8 34 9b 3e c6 d8 1d 3d a1 a6 8d be
       -0.18706724 0.3031361 0.03853681 -0.2766619
0002e0 79 e9 12 3d fc 9e 17 bd 5b 21 e8 3d 31 0a 88 be
       0.035867188 -0.037016854 0.11334487 -0.26570275
0002f0 0a 23 7b 3e d0 23 a1 bd de cc 71 bd 0c 2d 47 be
       0.24525085 -0.07868159 -0.059033267 -0.19450778
000300 2a bb 5f 3e fe 81 27 be d4 01 cd 3d 85 4e 21 3e
       0.21848741 -0.16358182 0.10010114 0.15752609
000310 4d 10 bf be d3 d6 b2 bd 7f d2 86 3b e6 76 0b bb
       -0.37317124 -0.08732381 0.0041144486 -0.0021280586
000320 6d 5a 34 3e b3 c2 d5 bc 95 91 38 3e e5 a9 b4 3c
       0.1761262 -0.026093816 0.18024285 0.022053668
000330 0f b5 26 3e 76 30 13 3e 45 71 ea 3d 3e 2a 12 bd
       0.16280006 0.14373955 0.11447386 -0.035684817
000340 61 94 05 3e fb 7c e4 bc e9 3c 09 be ea 4e 04 3e
       0.13044883 -0.027891627 -0.13402142 0.12920728
000350 0a 9a b1 bd 64 6f fe bc 5c bc 21 3d a5 0d 20 3e
       -0.08671959 -0.031058975 0.039486274 0.15630205
000360 44 1b 3b 3e bd 06 07 3d 23 7d 3c 3e 70 d4 56 be
       0.1827212 0.03296541 0.18407111 -0.20979476
000370 98 92 27 3e 2e da 11 be 47 4d 34 be 65 9f 52 be
       0.16364515 -0.14243385 -0.17607604 -0.20568617
000380 e8 8e 82 be 54 ec 6c 3e 31 7f 3e bd d3 5a 8d 3e
       -0.25499654 0.23137027 -0.046508018 0.27608356
000390 02 8d 1a 3d 1d 11 80 bd d3 b9 c3 3d ed fd 19 3e
       0.03773213 -0.06253264 0.095569275 0.15038271
0003a0 44 bc fb bd 22 52 93 bc 74 e6 42 3e d4 c4 de bd
       -0.12291768 -0.0179835 0.19033223 -0.10877386
0003b0 4d 9e cb bd e3 ac 16 bc 37 dc c0 3d fa 2f 6c bd
       -0.09942303 -0.009196493 0.09417003 -0.05766294
0003c0 a8 19 59 be 03 ee b0 3e 66 62 1d be e3 d5 f8 3d
       -0.21201193 0.3455659 -0.15369567 0.12150171
0003d0 4a 41 9a bd 0a 0e d1 bc eb 53 11 3e 31 95 66 3e
       -0.07531984 -0.02551939 0.14192168 0.2251785
0003e0 67 31 51 3d 19 84 36 be 4e 9f 96 be 5f d4 83 3e
       0.051072504 -0.17823829 -0.29418415 0.25747964
0003f0 e7 85 a2 3e 64 be 22 bc 29 07 04 3e a5 8c 30 3e
       0.31742784 -0.009933088 0.12893356 0.17241152

encoder_lstm.bias_ih_l1 f4 [64]
000000 f1 26 a6 bd 83 68 5f bd 23 22 97 bc 65 45 e1 3d
       -0.08112896 -0.05454303 -0.018448895 0.10999564
000010 e7 04 43 be 1e aa ca 3d 51 aa 47 3e 8f fd 8d 3d
       -0.19044839 0.098957285 0.19498564 0.06933128
000020 c7 3b 1e bd 9d f2 24 3e ec 66 47 be c8 1a 23 3d
       -0.038631227 0.16108175 -0.19472855 0.039820462
000030 3d c6 12 be 67 75 9b 3d 93 1d a3 3d 7f 36 9f 3d
       -0.14333434 0.07590752 0.07964625 0.07774066
000040 7e 52 74 3e 61 ed 89 bc 9c 11 36 3d 48 86 b7 3d
       0.23859593 -0.016836824 0.044450387 0.08961159
000050 f3 b0 37 3d ad 63 7a 3e 81 5f 47 3d 4d af 9b bd
       0.044846486 0.24452086 0.048675064 -0.07601795
000060 d9 88 ca bd e6 6b 00 be 99 a2 ac 3c dd b9 a1 bd
       -0.09889383 -0.1254116 0.021073626 -0.07896779
000070 f0 68 50 3d 80 09 36 be 99 43 d4 bd b0 3e 81 3e
       0.050881326 -0.17777061 -0.10364456 0.2524314
000080 76 14 2f be e6 c1 0a 3d 4c f3 3f be cf 92 5e bc
       -0.17097649 0.033876322 -0.18745154 -0.013584807
000090 a7 6f 50 3c a8 7f 4e 3e fe 0e 81 3e 1b b2 52 be
       0.0127219325 0.20165884 0.2520675 -0.20575754
0000a0 16 a9 03 3e cd 54 91 be 4a 8c 32 be 6a ff 93 be
       0.1285747 -0.2838501 -0.17436329 -0.28905803
0000b0 d6 17 95 bd 72 a1 53 3d 5d b3 92 3e bb 46 22 3e
       -0.07279937 0.051667638 0.28652468 0.15847294
0000c0 b6 ad 2c 3e da cc 13 3e 53 bb 18 bd 87 2d 98 bc
       0.1686314 0.14433613 -0.03728802 -0.018576397
0000d0 2b b2 96 3c 78 f1 96 3e eb fb da 3e 46 13 70 3e
       0.018395504 0.294811 0.42770323 0.23444852
0000e0 fc 5e 5b 3e a3 d2 24 be ab 3d 62 3e c4 29 a7 3e
       0.21422952 -0.16095977 0.22093837 0.32649052
0000f0 1c 10 f7 bd 25 98 1d bd 5f 61 8a 3e 45 98 2c bd
       -0.120636195 -0.038475174 0.27027413 -0.042137403

encoder_lstm.bias_hh_l1 f4 [64]
000000 a0 12 5f 3e d3 e0 15 bc 07 2a 7f 3e 9e 66 89 3e
       0.21784449 -0.009147841 0.24918376 0.26836103
000010 6a fa 85 3d 29 a6 f3 bd 28 37 5a 3d c3 83 f1 3b
       0.06541903 -0.11896927 0.053275257 0.0073704435
000020 69 18 02 be 6d 36 84 3e ae 8c 3a be 99 f2 c2 ba
       -0.12704624 0.25822774 -0.18217728 -0.0014873325
000030 9f c5 8c bd 06 10 86 3e 0b 41 f8 3d a2 5d 03 3e
       -0.06873631 0.261841 0.12121781 0.12828687
000040 71 4b 65 bd 67 06 29 3e 8a a5 c7 3e 7d 95 6a bb
       -0.05598015 0.16506349 0.38993484 -0.0035794668
000050 11 42 25 be 53 62 16 be a2 52 9b 3d 94 42 1f 3c
       -0.16138484 -0.14685945 0.0758412 0.009720463
000060 e5 1f ed bd 1f 77 4e bd 56 44 e2 bd fa b5 b9 bc
       -0.11578349 -0.05040657 -0.1104819 -0.022669781
000070 42 5d 58 3d e5 ba 8e 3e 8d 6d 58 3e 48 5f 9e 3e
       0.052823313 0.27876964 0.2113554 0.3093207
000080 50 ed 29 3e 80 7b 55 3e 03 aa 8d be f9 35 92 3d
       0.16594434 0.20847893 -0.2766877 0.07139201
000090 40 cf bd 3d 57 89 71 3e 61 fd 06 3e 51 da aa 3d
       0.092680454 0.23587547 0.13182594 0.08342422
0000a0 61 cb 12 3d fb dc 87 be 42 26 8d 3d 94 0b 7f be
       0.03583849 -0.26535782 0.06892063 -0.2490676
0000b0 bc 79 12 be d4 06 51 3d 3a 99 e2 3d 9f 3a 34 be
       -0.1430425 0.051031902 0.11064382 -0.17600487
0000c0 d6 0b f9 bd ea 28 25 be 45 92 17 3d 08 a6 92 3e
       -0.12160461 -0.16128889 0.037004728 0.28642297
0000d0 d6 45 a5 3e cc 3a c0 ba 31 1e 7a 3e 04 3e d3 bd
       0.32279843 -0.001466596 0.2442558 -0.10314563
0000e0 eb ae b0 3e f3 16 0f 3d e1 22 ec bd 43 8c 13 bd
       0.34508452 0.034933995 -0.1153009 -0.036022436
0000f0 a9 5d 32 be e5 3b 88 3e 6a 5d 8f bd 41 9d 03 3e
       -0.17418541 0.26608196 -0.07000239 0.12852956

fc_mu.weight f4 [4, 16]
000000 6b 57 79 3e 9a 50 3c 3d 0e 71 32 3e 45 0c 0f be
       0.24349754 0.045975305 0.1742594 -0.13969524
000010 9c 98 cf 3c 86 ff a1 ba 87 36 88 3c 3e cf 51 3e
       0.025341325 -0.0012359477 0.016627563 0.20489213
000020 87 45 1b 3d 6c 17 c7 3d 77 f0 a5 3e 63 d0 54 bd
       0.037908103 0.09721264 0.32410023 -0.051956546
000030 7f ad 81 bc c7 09 14 be 5e af 68 3e a5 4f 2a be
       -0.0158298 -0.14456855 0.22723147 -0.16631944
000040 2e 8f 64 be c6 e8 cd bd 1d 79 0e 3e 19 fe d2 3d
       -0.22320244 -0.10054164 0.13913389 0.103023715
000050 7e 39 12 be aa 21 06 bd c7 d3 26 bc e4 22 cc 3d
       -0.14279744 -0.03274695 -0.010182328 0.09967592
000060 cc e9 04 3e 6d 46 d8 bc f8 d8 99 bb 54 1d 3f 3e
       0.12979811 -0.02640077 -0.004695054 0.18663532
000070 3f de 1d 3e 45 f1 bc bd de fb 77 3e 00 7f 8d 3d
       0.15416811 -0.09225706 0.24217173 0.06908989
000080 fc 9b 6b 3e ad df 31 3e 95 cb 38 bd c1 82 4e 3e
       0.23008722 0.17370482 -0.045116026 0.20167066
000090 79 44 35 3d 22 5c a0 3d 52 ee 1c 3e 7d 42 fb bd
       0.044254754 0.07830073 0.15325287 -0.12268541
0000a0 a0 b6 bc 3c 41 86 51 3e a2 dd f1 bb 90 6d 12 3e
       0.023036301 0.2046137 -0.007381157 0.14299607
0000b0 f3 c8 93 3b dc 82 f1 bd c2 2d 07 be c5 67 44 3e
       0.004510039 -0.117925376 -0.13201049 0.1918021
0000c0 12 65 02 be 0b 89 dc 3e 91 93 34 3e aa 11 da be
       -0.12733868 0.43073305 0.17634417 -0.42591602
0000d0 df 0c f9 be ef dc df bd 4e 3c c4 3e 3d 8f 4f 3e
       -0.48642632 -0.109308116 0.3832726 0.20269485
0000e0 3e ee 01 bf 24 4e ee 3d 08 85 2c be 41 36 dc 3d
       -0.50754154 0.11635998 -0.16847622 0.107525356
0000f0 01 4f fb 3e 38 9a 8e be 37 f5 32 be 27 8f 9c be
       0.49083713 -0.27852035 -0.17476355 -0.30577967

fc_mu.bias f4 [4]
000000 a0 eb a6 bd 53 4a 34 3e c3 f1 2a 3e 08 58 02 be
       -0.08150411 0.17606477 0.16693787 -0.12728894

fc_logvar.weight f4 [4, 16]
000000 1d 5b de 3d 34 ae 57 bd 61 a7 49 bd dc 39 93 bd
       0.10857222 -0.052656367 -0.04923189 -0.0718877
000010 4d 32 4f bc f7 b5 ac bd 80 35 17 bd 60 d4 3b 3e
       -0.01264627 -0.084331445 -0.036916256 0.18342733
000020 1b 3e 80 bc 83 6d 78 bb c4 f0 b4 bd 2e 34 d4 bd
       -0.015654614 -0.003790707 -0.08834985 -0.10361515
000030 a9 88 3f be 98 59 e3 3c 3e df 15 3e 43 5d 88 3c
       -0.18704475 0.027752683 0.14635941 0.016646033
000040 d3 4f 98 3d e9 c8 43 ba 23 18 46 bd 38 98 8f be
       0.074371 -0.00074685976 -0.048362862 -0.2804582
000050 c9 97 db bc 51 4c 85 3b 5d 78 61 bd 9c 76 63 3e
       -0.026805775 0.0040679355 -0.055046428 0.22213215
000060 cd 37 12 3e 61 89 3d bd c7 f4 30 3e c1 86 d4 bc
       0.14279099 -0.046273593 0.17280875 -0.025943162
000070 2d 1e b3 bd f3 a8 48 bd 45 52 4c bd d7 f7 ab 3d
       -0.0874599 -0.048989248 -0.049883146 0.08396881
000080 18 31 16 bd e3 e7 14 be 50 82 6a be ab f7 59 3e
       -0.036667913 -0.14541583 -0.22901273 0.21285884
000090 b6 0b ed bd de 4d 43 be 1e 94 b1 3d ae 32 bf bc
       -0.11574499 -0.19072673 0.08670829 -0.023339596
0000a0 78 94 4f 3d 6a 4c a5 bd 6d e3 2b 3d b3 b9 c7 3d
       0.0506787 -0.080712155 0.041964937 0.09752216
0000b0 5b 4a bc bd f7 f8 bd bd b9 75 5f be 17 7b 02 3e
       -0.0919387 -0.09276002 -0.21822251 0.12742268
0000c0 a3 82 18 3e be d7 55 bd 65 11 0d 3f bc c0 d1 bc
       0.14893584 -0.0522077 0.55104667 -0.025604598
0000d0 d4 76 83 bd 15 90 c1 be 07 1e da be 50 32 82 3e
       -0.06419149 -0.37805238 -0.42601034 0.2542901
0000e0 38 c0 fd bd b2 a2 da 3d 0a 55 2b be 35 38 d6 3e
       -0.123901784 0.10675563 -0.16731659 0.41839758
0000f0 58 f9 1e be 29 02 18 bd 3d 86 a7 be ff 37 a8 3e
       -0.15524805 -0.037111435 -0.32719603 0.32855222

fc_logvar.bias f4 [4]
000000 b9 f6 19 bd bc 24 76 bc e5 1e 34 3d 1e 47 03 be
       -0.03758881 -0.015023407 0.043974776 -0.12820098

decoder_lstm.weight_ih_l0 f4 [64, 4]
000000 8f 89 0d 3e 83 0c f2 3d 69 3b 79 bd 0c 8a a3 bc
       0.13822006 0.11818793 -0.060847674 -0.019963287
000010 e7 cc 3a 3e cd 94 e8 3d da b8 1e 3e 74 45 9f bd
       0.18242227 0.113565065 0.15500203 -0.07776919
000020 21 1a d6 bc 13 91 05 3d 72 03 b9 bd 63 2c 0b 3d
       -0.026135506 0.032609057 -0.0903386 0.033977877
000030 b9 aa 02 be 62 8c 0f 3e 11 f6 f9 3d 42 31 ad be
       -0.12760438 0.14018396 0.122051366 -0.33826643
000040 dc 05 9f be d1 fd e4 3c cb 00 19 3e 91 f3 ae 3c
       -0.31059158 0.02795306 0.14941709 0.021356376
000050 56 a1 af 3d 7f 96 09 bd da 12 16 3e 43 56 d1 3d
       0.08575694 -0.03359079 0.14655629 0.10221531
000060 2c d5 8b bd 47 c8 4a bd c9 d1 58 3d db 80 b4 be
       -0.06827769 -0.049507406 0.05293444 -0.3525456
000070 be f1 9e 3d dd f9 4b 3e 0c a6 2e 3e d1 d0 6c 3d
       0.077609524 0.19919534 0.1705553 0.05781633
000080 40 65 37 bd 4f 6b b1 3d ee c0 22 3e f0 70 2c 3c
       -0.044774294 0.086630456 0.1589391 0.010524973
000090 3a 55 24 3e 70 48 e8 3d 6a 8f ee bd d3 f8 b9 3d
       0.16048136 0.11341941 -0.11648448 0.090806626
0000a0 70 e8 97 3c cf a7 f1 bb 51 66 c0 3d a2 b9 3a bd
       0.018543452 -0.0073747407 0.09394515 -0.04558719
0000b0 4f 67 38 3d 57 c5 d0 3d 4c 8f 4a be 7b fd d4 3c
       0.045020398 0.101938896 -0.19781226 0.025999775
0000c0 30 83 6a be 05 73 a2 bd 6a cc a0 3c 21 62 65 3d
       -0.22901607 -0.079320945 0.019628722 0.056001786
0000d0 0d a2 b0 bd 2f a3 30 3b 51 40 85 bc bf 67 95 bd
       -0.08624659 0.0026952734 -0.01626602 -0.072951786
0000e0 da 02 85 be 5f de 64 be 4a 9a 98 bd 46 00 1d be
       -0.25978738 -0.22350453 -0.07451303 -0.15332136
0000f0 d8 71 68 be a7 f0 1e bd db e5 4c 3e 04 33 3d 3e
       -0.22699678 -0.038803723 0.20009558 0.18476492
000100 79 d3 38 bc 08 57 bc 3c 58 6f ff 3d d2 a7 e7 bd
       -0.011280888 0.022990718 0.12472409 -0.11311306
000110 e3 1b a7 bd 2b 44 37 be e7 d9 a5 3c 4e b8 0a 3e
       -0.08159616 -0.17897098 0.020245505 0.13546869
000120 a1 14 ab 3b 95 89 5d 3d c9 db 91 bd 23 af dd 3d
       0.005220965 0.054086287 -0.07121999 0.1082442
000130 d0 98 de 3d 46 f7 00 be d0 16 20 be 04 7f 24 3e
       0.108689904 -0.12594327 -0.15633702 0.16064078
000140 6b d9 c6 3d 19 e0 53 be 9c 78 8b 3d 4f 63 3c be
       0.09709438 -0.20690955 0.06810114 -0.18397258
000150 75 47 11 be 50 1c 4f 3e f3 04 2b 3c 88 ab b5 bd
       -0.14187415 0.20225644 0.010438192 -0.088706076
000160 fd b6 63 3e aa 75 2d 3e 9a 5c 26 be 92 00 90 be
       0.22237773 0.16939417 -0.16246262 -0.28125435
000170 9a 74 d0 3d 78 cc a0 bd ff 65 39 bd 71 e8 bc 3e
       0.1017849 -0.07851499 -0.045263287 0.3689609
000180 84 26 0d be 21 ee f6 3d 7e 13 0c be cd 2b 32 be
       -0.13784224 0.12057138 -0.1367931 -0.17399521
000190 81 2b 0f be 58 22 34 3e d6 73 23 be 4a d1 8c 3e
       -0.13981439 0.17591226 -0.15962157 0.27503425
0001a0 1b 3d 09 3e 9c 37 35 bd 3e 90 34 3e b3 de 6a be
       0.13402216 -0.044242486 0.17633149 -0.22936516
0001b0 17 69 57 3e 7b f6 b5 3d 1d a1 2d 3e a3 da db 3b
       0.21036182 0.08884903 0.16955991 0.006709413
0001c0 af 0c 59 be 68 39 bb bd 18 f3 88 3d a8 fe 1f 3e
       -0.21196245 -0.09141809 0.066869915 0.15624487
0001d0 c4 f7 9d be 7b 62 79 3d a9 18 1c be ca 49 72 be
       -0.30853093 0.060884934 -0.15243782 -0.23660961
0001e0 9a 9e 18 be 96 7d 27 3d ec a1 f8 3d f5 e2 1b 3e
       -0.14904252 0.040891252 0.12140259 0.15223296
0001f0 ec 38 8a bd 37 cf f3 3d 89 3d 1d be 26 b2 36 3e
       -0.06749138 0.119047575 -0.15355505 0.17841396
000200 a9 ab b7 bc f4 31 e2 3d 51 22 4d be 47 2f 47 3e
       -0.022420721 0.11044684 -0.20032622 0.19451629
000210 44 f8 20 be c7 69 cc 3d 20 97 46 bd 79 99 6d 3e
       -0.15719706 0.09981113 -0.048483968 0.23203076
000220 b9 62 2a bb 5a 7c 49 be a9 93 75 3e 1a ed 3c bc
       -0.0025998785 -0.19676343 0.23982109 -0.011531139
000230 44 ee e0 bc e9 da 2c 3d d0 b5 bd bc 35 6d 8c 3e
       -0.027457364 0.042200956 -0.023157984 0.27427068
000240 e4 6c f5 bd 58 29 44 be ad 1e 44 be a6 4d 0d bd
       -0.1198366 -0.19156396 -0.19152327 -0.03449788
000250 c6 7e 30 3e d9 46 ac bd b8 5d 34 bc 91 5c ad 3e
       0.1723586 -0.084119506 -0.011008672 0.33859685
000260 f9 f7 fc 3c 48 c7 44 3d 3b 2d c7 bd 26 6c 83 be
       0.030879961 0.048041612 -0.09725424 -0.25668448
000270 df 22 eb 3d 53 a6 c4 3c 87 70 f5 3d d6 b8 1a be
       0.114812605 0.02400509 0.119843535 -0.15109572
000280 8d 9c 13 3e 2b b1 38 be 7b d9 27 3e 4f 89 b6 be
       0.14415188 -0.18036334 0.16391556 -0.35651633
000290 d6 0a 62 3d 2d ca a0 39 a2 3d 27 be 4f 70 8d be
       0.055186115 0.0003066821 -0.16332105 -0.27624747
0002a0 07 e8 2a be 77 da 3a 3c 08 47 34 bd a2 6e 13 be
       -0.16690074 0.011404625 -0.044013053 -0.14397672
0002b0 f0 6b 36 3e e1 e3 34 bd ee d5 03 bd 72 ff 9d 3e
       0.17814612 -0.044162635 -0.03218644 0.30858952
0002c0 e4 44 56 3e 24 f1 47 be 27 63 1d 3e fd d0 04 3d
       0.20924717 -0.19525582 0.15369855 0.03242587
0002d0 f2 ee 3e bc 18 74 8d 3d e0 be 6c bc 52 81 39 be
       -0.011653649 0.06906909 -0.014449805 -0.18115738
0002e0 d8 95 26 3e 38 17 55 bc ac 16 f1 bd 0b 1f 7f 3c
       0.16268098 -0.013006024 -0.117719024 0.015571366
0002f0 7c a1 12 be f0 18 45 bd be 96 24 3e 9f 99 57 3e
       -0.14319414 -0.048119485 0.16073129 0.21054696
000300 8c 42 95 bd d6 fa 52 3e dd 6b 4e be 11 1c 1c 3d
       -0.072880834 0.20603499 -0.20158334 0.038112704
000310 6c 66 18 3e 41 90 5d bd 11 c2 96 bd a6 db 6d be
       0.14882821 -0.05409265 -0.07361234 -0.2322832
000320 da a5 92 3d 13 d1 52 be 6f af ad bd b6 e9 ca bc
       0.0716054 -0.20587568 -0.08480727 -0.024769645
000330 86 a6 c8 bd 66 51 1c be 0e 10 cd bd c9 e7 c3 be
       -0.09797387 -0.15265426 -0.10012828 -0.38262776
000340 36 cb 46 be 5b 2c fa bd b6 1d 05 be 62 c9 19 be
       -0.19413456 -0.122154914 -0.12999615 -0.15018228
000350 c3 74 08 3c 1b 2a 56 3d 72 23 0f 3e 44 74 62 bd
       0.008328619 0.05228625 0.13978365 -0.05528666
000360 3a e4 4d 3e 15 da 94 3d c9 d7 b2 3c 02 a4 0a be
       0.20106593 0.07268158 0.02183141 -0.13539127
000370 7a bd 32 3e 86 2b 23 be 46 fd 7d 3b 92 bd a2 bd
       0.17455092 -0.15934572 0.00387557 -0.07946314
000380 7c 89 09 be 09 7b 1b 3e a0 14 dc 3c a6 a1 8c be
       -0.13431352 0.15183653 0.026865304 -0.27467078
000390 57 de 35 3c 9e 53 5e 3d b7 4c 0f bd ee a9 bf 3d
       0.011100373 0.054278962 -0.03498527 0.093585834
0003a0 e7 4a 68 bd 1e f9 2b 3d 64 e5 09 3e 8c d9 bf be
       -0.056712057 0.041985624 0.13466412 -0.37470663
0003b0 84 36 b5 bd cd f9 2e be b2 d3 f1 3d ec 5e 4d bc
       -0.08848289 -0.17087479 0.11807956 -0.012534838
0003c0 e2 8a 13 3e f1 36 03 be 3a 3a 74 3d 7c 69 81 be
       0.14408448 -0.12813927 0.05962584 -0.2527579
0003d0 91 f8 02 3e c0 fc 5b 3e 0d f4 7f be 01 c0 24 be
       0.12790133 0.21483135 -0.24995442 -0.16088869
0003e0 d1 71 f0 3c ed 13 42 3e b7 68 5f be ce 94 09 be
       0.029351147 0.18952914 -0.2181729 -0.1343567
0003f0 56 b2 4a be bb b7 60 bc ba 36 5e bd 81 c8 8d 3d
       -0.19794592 -0.01371568 -0.05425141 0.06923009

decoder_lstm.weight_hh_l0 f4 [64, 16]
000000 3f a8 cc bd 30 4f 76 bc 8d 86 19 3e 1c c4 97 bd
       -0.09993028 -0.015033528 0.14992733 -0.07410452
000010 f6 b0 51 be 7f 1f 35 be 46 91 7d bd 67 ca c3 3d
       -0.20477661 -0.17687796 -0.06190612 0.095600896
000020 61 6c a8 3d c2 48 a8 bc ca 11 ab 3a c0 a4 0c bd
       0.08223797 -0.020542506 0.0013051566 -0.034336805
000030 41 b7 be 3d e0 1e 4d be 63 59 77 be 60 b9 2c 3b
       0.09312297 -0.20031309 -0.24155192 0.002635561
000040 77 12 ae 3d 9d 4d db 3d 20 5d 12 3e 95 9d 10 3d
       0.08499616 0.10708163 0.14293337 0.035306532
000050 69 24 07 bd 7f 9c 20 be 3c 48 69 be b9 fa 87 3e
       -0.032993708 -0.15684699 -0.22781461 0.26558474
000060 c7 1f 47 be 84 a2 17 3e 57 ec 98 3d 85 b2 2a bd
       -0.19445716 0.14808089 0.07466953 -0.041674156
000070 eb 0f 45 3e ed 2f 62 bd c8 40 83 bc 28 27 20 3e
       0.19244353 -0.055221487 -0.016022101 0.15639937
000080 31 d5 2e 3c 79 f6 5b be fd 13 6f 3d ab a5 73 3d
       0.010670946 -0.2148074 0.05836867 0.059484165
000090 ac f7 28 be a1 98 50 bc 70 0d e9 bc 2e c0 bf bb
       -0.1650073 -0.012731702 -0.02844879 -0.005851767
0000a0 b7 76 e9 bc c7 8f 51 bd 73 3a a6 bc f5 f4 f6 bd
       -0.02849899 -0.051162507 -0.020291543 -0.120584406
0000b0 9c ba d8 3d 85 b9 9f bd f7 69 38 3e fd ab 04 3e
       0.10582468 -0.07799057 0.18009172 0.12956233
0000c0 cb 96 eb bd ec 91 8f be 0a 80 be 3d 9e a9 71 be
       -0.11503371 -0.28041017 0.09301765 -0.2359986
0000d0 b2 be 63 bd c3 98 58 be b3 da 2c 3e 0e bc 26 3e
       -0.055601783 -0.21152024 0.16880302 0.16282675
0000e0 49 45 5f 3e dc bf 91 3d 9e 79 61 3d 10 da 40 be
       0.21803774 0.071166724 0.055047624 -0.18833184
0000f0 aa 01 78 3d b7 d5 70 3e e9 74 07 be b1 d5 95 3d
       0.060548462 0.23519026 -0.13228191 0.07316149
000100 44 92 ba b8 a0 1c 8a be 9f 07 1f 3e 61 44 03 be
       -8.896415e-05 -0.26974964 0.15530251 -0.12819053
000110 ce 73 2f be e5 18 1c 3a e0 9b 4b 3d cf a7 87 be
       -0.1713402 0.00059546373 0.0497092 -0.26495215
000120 a2 85 c4 bd 60 ee dd 3d 63 aa 32 be 88 38 6d be
       -0.09595801 0.10836482 -0.1744781 -0.23166096
000130 db da 61 3d c9 c0 6b 3e 06 de c6 3c 5d da 3c 3e
       0.055140357 0.2302276 0.02427579 0.18442674
000140 ef 86 ad bd 3a 45 b8 3c 4f 9d 97 bd 3d 2d 8b be
       -0.08473002 0.022493947 -0.07403051 -0.27182952
000150 48 6e ec bd 04 33 3c 3e 86 86 2f 3e f9 4d 88 be
       -0.11544472 0.18378836 0.1714116 -0.26621988
000160 86 bb 14 3d 3e 06 4e 3e 00 20 0b bd 20 bc b9 bd
       0.03631165 0.20119569 -0.033966064 -0.09069085
000170 cd 84 f6 3c 8c b5 18 3c 3b 69 49 be 09 67 25 bd
       0.030092621 0.009320628 -0.19669048 -0.040381465
000180 3b ce a8 bd 1c 4c 8d 3e fe 72 50 bd fd dc 5b bd
       -0.0824246 0.2759713 -0.050890915 -0.053677548
000190 ff 1f 32 be b6 9d f8 3d 0a 7e 2d 3e 14 04 d6 3b
       -0.17395018 0.12139456 0.16942611 0.006531248
0001a0 25 0f 04 bd 1e 30 f8 3d 2e ce c3 bd 3d 52 47 be
       -0.032241005 0.121185526 -0.0956081 -0.19464965
0001b0 c6 44 36 3e 9d 34 2d bd c8 33 4c 3e 08 c1 97 3d
       0.17799672 -0.042286504 0.19941628 0.07409865
0001c0 a8 52 1e 3b 7b 57 bf 3d 34 8f 0c 3e b1 50 46 be
       0.0024158154 0.093428575 0.13726503 -0.19366719
0001d0 f4 4c c7 be c1 07 5a 3d 6e 29 89 3d 5b 39 1e be
       -0.38925898 0.05323005 0.06697355 -0.15451567
0001e0 2b 99 a7 be b6 11 51 be 41 91 ab 3d 15 79 25 bc
       -0.32734045 -0.20416912 0.08377314 -0.010099669
0001f0 98 d9 51 be 98 c7 bb 3c 5a 54 ee 3d 95 cc f2 3d
       -0.20493162 0.022922322 0.116371825 0.11855427
000200 9f cc f8 3d a5 e0 8e be 4d c8 7b bc 20 06 02 3e
       0.121484034 -0.27905765 -0.01536758 0.12697649
000210 a7 ea d3 3d 3f 59 16 bd af 9d 13 3d d9 da 47 bd
       0.10347491 -0.036706205 0.03603905 -0.048792694
000220 bd a1 3a 3e 87 d4 e6 3b 34 d2 bf 3d ed dc 37 be
       0.18225761 0.007044378 0.09366265 -0.1795537
000230 28 cb 5c 3e ae fd 35 be a9 fd 2f 3e b7 64 e5 3d
       0.21561873 -0.17772552 0.17186607 0.112008505
000240 37 8c 30 bc 94 2a cf bc 64 31 b5 3d 65 65 a4 be
       -0.010775617 -0.025288858 0.08847311 -0.32108608
000250 9b b8 19 be 19 82 b3 3d c6 b6 94 bd 2c bf 52 be
       -0.15011828 0.087650485 -0.07261424 -0.20580739
000260 65 8e 5a be 3b b5 c3 3c dc b4 92 3e b3 b1 76 bd
       -0.21343382 0.023890128 0.2865361 -0.06022806
000270 30 dc 1a be 2f 83 3b 3e b1 c7 30 be d2 6b 3d bd
       -0.15123057 0.18311761 -0.17263676 -0.046245404
000280 e8 ad 4a be 58 60 85 3d ee 87 c0 bd ba 0b 9a be
       -0.19792902 0.06512517 -0.094009265 -0.30087072
000290 b5 6a 08 3c 31 26 3c bd 1d e5 b1 3d cc 14 ca bd
       0.008326222 -0.04593486 0.08686278 -0.09867248
0002a0 20 0a 0c 3e 39 78 7f 3d 4b cc ad bd 50 7b b0 3d
       0.13675737 0.062370513 -0.084862314 0.0861727
0002b0 f5 72 6b be 49 81 3c 3e e6 d3 72 be 1b 1e b2 3d
       -0.22993071 0.18408693 -0.23713645 0.086971484
0002c0 82 2f ee bd 15 25 cc 3d f4 61 72 be 3c d5 73 bd
       -0.11630155 0.0996801 -0.23670179 -0.059529528
0002d0 dc 6b 79 3e 9a 21 7d bd ca 79 dd bd 1a c0 c1 bd
       0.24357551 -0.061799623 -0.10814245 -0.094604686
0002e0 3e f9 56 be e8 20 b6 bd f5 4b 65 bd e8 97 34 be
       -0.20993516 -0.08892995 -0.05598064 -0.17636073
0002f0 9e be 89 3d d3 fb a6 3c 83 d1 3b bd 63 d0 16 bc
       0.067258105 0.020383751 -0.045854103 -0.009204957
000300 9d 09 98 3e a4 17 ae bd de 76 03 be 00 20 1c bd
       0.29694834 -0.08500603 -0.12838313 -0.038116455
000310 d8 d8 11 3e aa a8 74 bd 03 c1 f1 3b 35 d0 55 bd
       0.14242876 -0.059731163 0.007377745 -0.052200515
000320 1f 89 7a 3c 24 54 64 be 6e ba f4 3c f6 d7 2d bd
       0.015291481 -0.22297722 0.029874053 -0.042442285
000330 46 02 79 bd 66 94 46 3e 0f 4f 8f 3e 19 62 0f 3e
       -0.060793184 0.19392547 0.27990004 0.14002265
000340 bb 73 15 bd 8f 53 9f bc 28 3c 5f 3d 81 c1 83 be
       -0.036487322 -0.019449024 0.05450073 -0.2573357
000350 8b f3 bc 3d b6 da cd 3d a9 bc d4 3d 5c 23 28 3e
       0.0922614 0.100514814 0.103875466 0.16419739
000360 f4 e0 c1 3d 1d 59 b4 bd 53 25 1a be 62 0e 48 3e
       0.094667345 -0.088060595 -0.150533 0.19536737
000370 91 6f 6a 3d 03 af 64 3e 16 e7 0b be 7a cb 52 3d
       0.057235304 0.22332387 -0.13662371 0.05146358
000380 10 c1 e0 3b d9 d4 fd bd a8 36 20 bd b8 21 51 be
       0.0068589523 -0.12394113 -0.039114624 -0.20423019
000390 7d dc 11 be 22 16 82 be 53 04 7d 3d 6a 28 10 be
       -0.14244266 -0.2540751 0.061771702 -0.14077917
0003a0 34 9f 75 3d e9 74 1b 3e b8 04 90 bd 54 48 05 be
       0.05996628 0.15181316 -0.0703215 -0.13015872
0003b0 a6 59 b1 bd 22 44 99 bc ef 8b 02 3e 9e 69 7f 3d
       -0.08659677 -0.018709246 0.12748693 0.062356584
0003c0 51 15 13 be 6a 9b d3 bc 01 ae 2b be 07 97 9d be
       -0.143636 -0.025830943 -0.16765596 -0.30779287
0003d0 b6 07 4a bc dd ab ef 3d 52 fb 39 3e 79 99 65 be
       -0.01233094 0.11702702 0.18162277 -0.22421826
0003e0 18 f8 26 3e 7d 7b 51 3d d0 05 c4 3d 62 0f 27 bd
       0.16305578 0.05114316 0.09571421 -0.040786155
0003f0 08 87 e3 3d 57 5c 9a bd 96 3a 54 3e 73 66 19 3d
       0.111097395 -0.07537144 0.20725474 0.03745122

decoder_lstm.bias_ih_l0 f4 [64]
000000 c1 4b 24 be b4 69 25 3e 74 fb 85 3d 36 4b 8e bd
       -0.16044523 0.16153604 0.065421015 -0.06947939
000010 b5 d1 46 3d 76 c9 24 bd 14 34 4d 3d 75 2c cf 3d
       0.048539836 -0.04023119 0.050098494 0.101159014
000020 c3 80 6b 3d aa d7 0c 3e 5e 05 f7 bd 8d 28 98 3e
       0.057495844 0.13754144 -0.120615706 0.29718438
000030 dd 01 8d 3d 47 18 5b be df 6a b1 3d 39 bc b9 bc
       0.06885121 -0.2139598 0.08662962 -0.02267276
000040 33 12 04 be 09 54 ac bd 26 71 59 3d 6a 6c 16 3e
       -0.12897567 -0.08414466 0.053086422 0.14689794
000050 18 0e 44 3d 9a 3c 9d bd 67 10 3c be 4c d6 17 be
       0.047865003 -0.076775745 -0.18365632 -0.14827842
000060 1d 7d 00 3e 66 c8 00 3e dc cb ab 3d f7 00 12 3e
       0.12547727 0.12576446 0.083884925 0.1425818
000070 32 4a 8c 3d 05 ae 72 3e 00 5a 86 3d ab 66 72 be
       0.06850089 0.23699196 0.06560135 -0.23671977
000080 fe 36 84 be 85 10 81 bd 94 fd 53 3e 27 24 30 be
       -0.25823206 -0.06301979 0.20702201 -0.17201291
000090 63 0f fe 3d c8 2c 0c be 79 e4 45 bd cd f2 f1 3d
       0.124052785 -0.13688958 -0.04831359 0.11813889
0000a0 47 cb 61 3e 4e a3 2f 3e 2c e9 31 3d 35 f1 c9 bd
       0.220502 0.1715214 0.04343526 -0.0986046
0000b0 e5 b5 7c be 8a 13 71 bd 06 35 92 be d2 5b 12 be
       -0.24678762 -0.058856525 -0.2855608 -0.14292839
0000c0 04 4d 9e 3d 30 4c 37 3e f7 2a 01 be 03 74 b3 3e
       0.07729533 0.17900157 -0.12614046 0.35049447
0000d0 16 6f 43 3e fd 42 ce 3b 55 f7 09 3e b5 1d d6 ba
       0.19085345 0.0062946067 0.13473256 -0.0016335758
0000e0 3a aa d5 3d ef 04 e2 bd 86 a7 42 3e ac 0c 69 3e
       0.10432859 -0.11036097 0.19009218 0.2275874
0000f0 e3 d8 e7 bd ba 48 ff bd ed ac 47 3e af e4 82 3d
       -0.11320665 -0.12465043 0.1949956 0.06391274
